data/probes_binary/layer_14/probe_emotion_understanding.pth (torch, 7184 bytes, 1 tensors)

linear.weight bf16 [1, 2560]
-0.00023078918 -0.011352539 0.016967773 0.0072021484 0.0037841797 -0.01361084 -0.0087890625 0.005004883
0.0012664795 -0.01977539 -0.0018157959 -0.00970459 -0.0032806396 0.0040283203 0.008972168 0.005584717
0.0027923584 0.006652832 -0.0072631836 0.0031280518 -0.0075683594 -0.002029419 -0.004486084 -0.010192871
-0.020263672 0.021606445 0.012512207 0.014282227 -0.022338867 0.017211914 0.004486084 -0.03515625
0.0058288574 0.023925781 0.0068969727 -0.008483887 0.0071411133 0.014160156 -0.0055236816 -0.0068969727
0.005065918 -0.0015106201 -0.00090026855 0.0071105957 -0.002090454 0.0005531311 -0.006164551 -0.0099487305
0.003692627 0.020751953 -0.007751465 0.010131836 0.008300781 -0.0026550293 0.0043029785 -0.006225586
-0.0026855469 0.0001783371 -0.0003414154 -0.00088500977 0.0025177002 0.024658203 -0.032714844 0.004211426
0.004272461 -0.03149414 -0.024902344 0.004272461 -0.005554199 -0.0012359619 0.00025558472 -0.012084961
0.010620117 0.018432617 0.0019989014 -0.011230469 -0.021484375 0.0017547607 0.022460938 -0.0012283325
0.014221191 0.0029449463 0.006134033 0.030029297 0.0042419434 0.0019378662 0.030273438 0.004272461
-0.004852295 -0.007293701 -0.0051574707 -0.0010223389 -0.0010604858 -0.020996094 -0.030517578 0.017700195
-0.0024261475 -0.0005569458 -0.0032348633 0.006439209 0.041748047 0.0053710938 -0.020751953 -0.0017242432
0.02709961 0.011474609 -0.0011749268 0.009887695 0.0017471313 0.01171875 0.017578125 -0.004547119
-0.0011138916 -0.0025024414 -0.0077209473 0.017333984 -0.0010375977 -0.016479492 -0.000831604 -0.0008621216
0.006439209 0.00592041 0.0033111572 -0.0029449463 -0.011291504 -0.007446289 0.0065307617 -0.011413574
-0.016113281 0.0115356445 0.0018539429 0.017333984 -0.032226562 0.009643555 -0.03100586 0.010192871
0.007171631 -0.01586914 0.0048828125 0.014465332 -0.0025634766 0.0010299683 -0.017822266 -0.006164551
-0.0028076172 0.009521484 0.0015335083 -0.0009841919 0.042236328 -0.009033203 0.018798828 -0.0044555664
-0.036376953 -0.037109375 -0.0087890625 -0.012512207 -0.008300781 0.011474609 0.0034942627 0.008911133
0.025634766 0.023071289 0.012084961 -0.0038604736 0.004272461 -0.00064086914 -0.015380859 0.0006790161
0.006225586 0.0054016113 -0.0072021484 0.021972656 0.0031585693 0.0024108887 0.016357422 -0.008605957
-0.007171631 0.0047912598 -0.0025787354 0.0015640259 -0.0057678223 0.012817383 -0.00039672852 0.008422852
-0.00024318695 -0.0018539429 -0.0049438477 -0.006958008 -0.0030670166 0.009094238 0.00074386597 -0.0011138916
-0.00075912476 -0.0005264282 -0.00027656555 -0.0005912781 -0.0029754639 -0.0017089844 -0.013793945 0.008239746
-0.025390625 -0.0057678223 0.022949219 0.009765625 -0.013183594 0.008728027 0.030273438 -0.016357422
-0.00289917 -0.0013504028 -0.005279541 -0.014892578 4.2676926e-05 0.011047363 -0.0028533936 0.008178711
0.0045166016 -0.0068359375 0.008850098 -0.013183594 -0.016601562 -0.004486084 -0.005859375 -0.014770508
0.022949219 0.0030975342 -0.0008773804 0.0053100586 -0.005126953 0.008728027 -0.0027313232 0.0009460449
0.007171631 0.0031585693 0.002319336 -0.0005302429 0.008728027 0.0048828125 0.014160156 0.0017089844
0.0025177002 0.0040893555 0.0033416748 -0.004180908 0.0048828125 0.0023040771 0.002243042 0.026977539
0.0033111572 0.0069274902 0.008850098 -0.0053100586 0.020629883 0.021728516 -0.005279541 0.01171875
00000000: 72b9 3abc 8b3c ec3b 783b 5fbc 10bc a43b
00000010: a63a a2bc eeba 1fbc 57bb 843b 133c b73b
00000020: 373b da3b eebb 4d3b f8bb 05bb 93bb 27bc
00000030: a6bc b13c 4d3c 6a3c b7bc 8d3c 933b 10bd
00000040: bf3b c43c e23b 0bbc ea3b 683c b5bb e2bb
00000050: a63b c6ba 6cba e93b 09bb 113a cabb 23bc
00000060: 723b aa3c febb 263c 083c 2ebb 8d3b ccbb
00000070: 30bb 3b39 b3b9 68ba 253b ca3c 06bd 8a3b
00000080: 8c3b 01bd ccbc 8c3b b6bb a2ba 8639 46bc
00000090: 2e3c 973c 033b 38bc b0bc e63a b83c a1ba
000000a0: 693c 413b c93b f63c 8b3b fe3a f83c 8c3b
000000b0: 9fbb efbb a9bb 86ba 8bba acbc fabc 913c
000000c0: 1fbb 12ba 54bb d33b 2b3d b03b aabc e2ba
000000d0: de3c 3c3c 9aba 223c e53a 403c 903c 95bb
000000e0: 92ba 24bb fdbb 8e3c 88ba 87bc 5aba 62ba
000000f0: d33b c23b 593b 41bb 39bc f4bb d63b 3bbc
00000100: 84bc 3d3c f33a 8e3c 04bd 1e3c febc 273c
00000110: eb3b 82bc a03b 6d3c 28bb 873a 92bc cabb
00000120: 38bb 1c3c c93a 81ba 2d3d 14bc 9a3c 92bb
00000130: 15bd 18bd 10bc 4dbc 08bc 3c3c 653b 123c
00000140: d23c bd3c 463c 7dbb 8c3b 28ba 7cbc 323a
00000150: cc3b b13b ecbb b43c 4f3b 1e3b 863c 0dbc
00000160: ebbb 9d3b 29bb cd3a bdbb 523c d0b9 0a3c
00000170: 7fb9 f3ba a2bb e4bb 49bb 153c 433a 92ba
00000180: 47ba 0aba 91b9 1bba 43bb e0ba 62bc 073c
00000190: d0bc bdbb bc3c 203c 58bc 0f3c f83c 86bc
000001a0: 3ebb b1ba adbb 74bc 3338 353c 3bbb 063c
000001b0: 943b e0bb 113c 58bc 88bc 93bb c0bb 72bc
000001c0: bc3c 4b3b 66ba ae3b a8bb 0f3c 33bb 783a
000001d0: eb3b 4f3b 183b 0bba 0f3c a03b 683c e03a
000001e0: 253b 863b 5b3b 89bb a03b 173b 133b dd3c
000001f0: 593b e33b 113c aebb a93c b23c adbb 403c
