data/probes_binary/layer_9/probe_pattern_recognition.pth (torch, 7172 bytes, 1 tensors)

linear.weight bf16 [1, 2560]
000000 1c 3b 31 3d f0 bc c8 39 64 bb b9 bb c6 bc 93 3c
       0.002380371 0.04321289 -0.029296875 0.00038146973 -0.003479004 -0.005645752 -0.024169922 0.017944336
000010 a8 3c a8 3c 24 bb a9 3a 2e bb 6c ba fa bb 60 ba
       0.020507812 0.020507812 -0.0025024414 0.0012893677 -0.0026550293 -0.00090026855 -0.0076293945 -0.0008544922
000020 cc 3b d2 bc b1 3c 2e bb 19 bd 7c 3c 31 bb 6f bb
       0.006225586 -0.025634766 0.021606445 -0.0026550293 -0.037353516 0.015380859 -0.0027008057 -0.0036468506
000030 01 3b 86 bc 2b 3d 2d bc 3e bc 55 bb 9a 3c bf 3c
       0.0019683838 -0.016357422 0.041748047 -0.010559082 -0.01159668 -0.003250122 0.018798828 0.02331543
000040 26 3c ac 3b c4 bb 18 bd 4b bc f2 3c 64 bc 9a 3b
       0.010131836 0.0052490234 -0.0059814453 -0.037109375 -0.012390137 0.029541016 -0.013916016 0.004699707
000050 1e 3a 17 bc 31 bc f7 bb b7 3c 52 bc 1e bd b2 bc
       0.00060272217 -0.009216309 -0.010803223 -0.007537842 0.022338867 -0.012817383 -0.03857422 -0.021728516
000060 ee bb a9 3b 3f 3c 04 bb 35 bd cf 3a 16 3c 82 3b
       -0.0072631836 0.0051574707 0.011657715 -0.0020141602 -0.044189453 0.0015792847 0.009155273 0.003967285
000070 e0 39 fa bb c2 ba fa bb a1 bb 6e bd c1 39 aa 3b
       0.0004272461 -0.0076293945 -0.0014801025 -0.0076293945 -0.00491333 -0.05810547 0.0003681183 0.0051879883
000080 ae b9 c2 3b 24 bd 00 bd 2d 3b 9e 3c b0 3c c1 ba
       -0.00033187866 0.00592041 -0.040039062 -0.03125 0.0026397705 0.01928711 0.021484375 -0.0014724731
000090 25 bb 80 bd 8c ba fb 3b 3d bb ba bc d0 bb 8c ba
       -0.0025177002 -0.0625 -0.0010681152 0.007659912 -0.0028839111 -0.022705078 -0.0063476562 -0.0010681152
0000a0 92 ba 18 ba 75 bc ee 3b 92 3c 68 bd 48 bc 8a 3a
       -0.0011138916 -0.000579834 -0.014953613 0.0072631836 0.017822266 -0.056640625 -0.012207031 0.0010528564
0000b0 d2 bc 02 3b 55 3b 93 bb e4 3a 47 3d 32 bc 1e 3d
       -0.025634766 0.0019836426 0.003250122 -0.004486084 0.001739502 0.048583984 -0.010864258 0.03857422
0000c0 6a bc 68 bc 41 3c ec bc 56 3b 0b 3c 83 3c c0 bb
       -0.014282227 -0.014160156 0.011779785 -0.028808594 0.0032653809 0.008483887 0.015991211 -0.005859375
0000d0 10 3c 8a 3b 08 bd a7 3c 9f bc 59 3a 12 bd 1d bc
       0.0087890625 0.004211426 -0.033203125 0.020385742 -0.01940918 0.0008277893 -0.03564453 -0.0095825195
0000e0 b4 bc 85 3c 1f bc fa bb 36 3b 5a 3c 14 bd 90 3b
       -0.021972656 0.016235352 -0.00970459 -0.0076293945 0.0027770996 0.013305664 -0.036132812 0.0043945312
0000f0 66 bb 30 38 5e 3c 93 3a e8 bc e2 3a 19 3c a4 bb
       -0.0035095215 4.196167e-05 0.013549805 0.001121521 -0.028320312 0.0017242432 0.009338379 -0.005004883
000100 75 ba 14 bb 31 bc cc 3c fb bc 3b bb c1 3a e5 3b
       -0.00093460083 -0.0022583008 -0.010803223 0.024902344 -0.030639648 -0.0028533936 0.0014724731 0.0069885254
000110 35 bb 1a 3d ea ba fe ba 6f 3c f8 bb 04 bd 18 bb
       -0.0027618408 0.037597656 -0.0017852783 -0.0019378662 0.014587402 -0.0075683594 -0.032226562 -0.002319336
000120 aa 3b ee ba 2b bd 04 bb 00 bc 2d bc ac 3b 05 bd
       0.0051879883 -0.0018157959 -0.041748047 -0.0020141602 -0.0078125 -0.010559082 0.0052490234 -0.032470703
000130 bf 3b 55 ba 62 3b f1 3c 1f bc 56 bc 6c 3b 9a bc
       0.0058288574 -0.0008125305 0.0034484863 0.029418945 -0.00970459 -0.013061523 0.0036010742 -0.018798828
000140 77 bb 9c bc f5 3b 70 ba 4f 3b c2 3a 1f 3b 6c bc
       -0.003768921 -0.019042969 0.0074768066 -0.00091552734 0.0031585693 0.0014801025 0.0024261475 -0.014404297
000150 86 bc e9 3a ef 3b 76 ba 6c bb 52 bb 26 bc 55 bc
       -0.016357422 0.0017776489 0.007293701 -0.0009384155 -0.0036010742 -0.0032043457 -0.010131836 -0.013000488
000160 10 3c db bb b7 b9 a2 3c b7 3b 36 bd 8b 3b 0f bb
       0.0087890625 -0.0066833496 -0.0003490448 0.01977539 0.005584717 -0.044433594 0.0042419434 -0.0021820068
000170 01 3c 2a 3b a9 bc 01 bd 15 bb 51 3d 8d ba a0 bc
       0.007873535 0.0025939941 -0.020629883 -0.03149414 -0.0022735596 0.05102539 -0.0010757446 -0.01953125
000180 74 3c 11 3c 61 ba 6b bb a1 3c fa 3c 27 bb a5 bc
       0.014892578 0.008850098 -0.0008583069 -0.0035858154 0.01965332 0.030517578 -0.0025482178 -0.020141602
000190 a0 ba 72 bc 2d 3c 2a bc f9 bc 8a bb 62 3c 47 3c
       -0.0012207031 -0.014770508 0.010559082 -0.010375977 -0.030395508 -0.004211426 0.013793945 0.012145996
0001a0 8d ba d5 39 38 3c 41 3a c9 b9 bb 3b 00 3d b1 3a
       -0.0010757446 0.00040626526 0.011230469 0.0007362366 -0.00038337708 0.005706787 0.03125 0.0013504028
0001b0 80 3c a4 3c 18 3d a5 3b 5c 3c 16 bc d5 3b ea 3c
       0.015625 0.020019531 0.037109375 0.0050354004 0.013427734 -0.009155273 0.006500244 0.028564453
0001c0 d0 bb 0a bd 54 3b 6c 3b 5f 3b 0c bc f2 bc 28 3c
       -0.0063476562 -0.033691406 0.0032348633 0.0036010742 0.00340271 -0.008544922 -0.029541016 0.010253906
0001d0 67 3d 23 3c 8d ba ad ba 16 3b 5a bc 7c bb bd bc
       0.056396484 0.0099487305 -0.0010757446 -0.0013198853 0.0022888184 -0.013305664 -0.0038452148 -0.023071289
0001e0 86 b9 04 3c f3 bb 5d bc a8 bc 31 bc 03 bb b9 bc
       -0.00025558472 0.008056641 -0.0074157715 -0.0134887695 -0.020507812 -0.010803223 -0.0019989014 -0.022583008
0001f0 64 3c 08 3b f0 3b fc bc 17 bc 70 3b d7 ba b7 39
       0.013916016 0.0020751953 0.0073242188 -0.030761719 -0.009216309 0.0036621094 -0.0016403198 0.0003490448
