data/probes_binary/layer_19/probe_connecting.pth (torch, 6990 bytes, 1 tensors)

linear.weight bf16 [1, 2560]
00000000: d9bb 7ebc e33b 57bb 5aba 273b 06bd 773b
00000010: 3139 78bc 8f3a 163b d8bc 0cbb 44bb c1bc
00000020: 19bc 013c 033d 433a 22bc 96bb 2abc a7bb
00000030: d33b 0b3d cbba 4e3b 5f3b 39bd 2cbc 36bc
00000040: 063d 1d3c 0c3c 89bb 3a3c 97bb 1a3c c0bc
00000050: 0ebb 92bb 9cbb 953a b93a 093c f4ba 20bb
00000060: 3739 2f3c 21bc c2bb 93bb dfbb 783c 47ba
00000070: e8bb ec3b d13b 9ebb c43c a0bc fcbc adbb
00000080: 1d3c ae3a e1bc 00bd 8abc 283c a33a f63b
00000090: 8fbc 553a 563b 9e3a cc3b 87bc ef3b 60bc
000000a0: b53b 143a 79bb 7e3c eb3b cfbc 8abb 373b
000000b0: c4bb a2bb aa3b b43b 9d3b 443c 4f3c d83b
000000c0: b63a 053c 0bbc 823b 11bc 303d 983b dfbc
000000d0: 07ba 053d fab9 623b 07bd 3e3c d9bc 39bb
000000e0: 583c 46bc 50bc f3ba 823a 06bc b83b 183b
000000f0: e63b 4cbc 26bc 603b bcbc dfbb f8b9 b43c
00000100: 0a3b b2b9 8d3c 09ba 0b3c 17bc 46bc d4bb
00000110: 003d ab3b cc3b 15bb 5bbc 5ebb e0bc 2b3c
00000120: 27bc e33a 203c 363c a63c 6bbc 953c 99bb
00000130: d7bb ccbc 583d c13c 6bbc 8f3c f0b9 463c
00000140: 3cbb 38bb 49bc 733b 6b3b 523c 4cbb f2bc
00000150: 2a3c 9bbb 293c d43b 1f3b dabb 963c 1d3b
00000160: 34bb 93bb 78bc 0bbb 0a3c db3b 2a3c 4bbc
00000170: d73c 7a3c 66bb 9bbb 7f3b cd3c ab3c 17bc
00000180: 31bc 213c b53b 863b fb3b cc3b eb3b ccbb
00000190: 363c 9f3a 403c 4bbc a0bb babc 01bd 0cbb
000001a0: 203c 6f3a dc3a 34bd 2ebb 5fbc bf3b 41bc
000001b0: bdbc a7bc 01bd 373c 3abb 8dbc 81bb d4bc
000001c0: 40bb 25bb 13bc c93a e4b9 0abc ccbc 00bc
000001d0: b839 1abc 623a 693b 823a 5fbb 99bc d1ba
000001e0: bb3a 8a3c 0fbc 46bc c53b 1bbc 43bc d23c
000001f0: 91ba b13b d53c 4dbc 093c a2bc 833c 143c
-0.0066223145 -0.01550293 0.0069274902 -0.0032806396 -0.000831604 0.0025482178 -0.032714844 0.003768921
0.00016880035 -0.015136719 0.0010910034 0.0022888184 -0.026367188 -0.0021362305 -0.0029907227 -0.02355957
-0.009338379 0.007873535 0.031982422 0.00074386597 -0.009887695 -0.0045776367 -0.010375977 -0.0050964355
0.006439209 0.033935547 -0.0015487671 0.0031433105 0.00340271 -0.045166016 -0.010498047 -0.011108398
0.032714844 0.0095825195 0.008544922 -0.004180908 0.011352539 -0.0046081543 0.009399414 -0.0234375
-0.002166748 -0.0044555664 -0.004760742 0.0011367798 0.001411438 0.008361816 -0.0018615723 -0.0024414062
0.0001745224 0.010681152 -0.00982666 -0.00592041 -0.004486084 -0.00680542 0.015136719 -0.00075912476
-0.007080078 0.0072021484 0.006378174 -0.0048217773 0.023925781 -0.01953125 -0.030761719 -0.005279541
0.0095825195 0.0013275146 -0.02746582 -0.03125 -0.016845703 0.010253906 0.0012435913 0.007507324
-0.017456055 0.0008125305 0.0032653809 0.0012054443 0.006225586 -0.016479492 0.007293701 -0.013671875
0.0055236816 0.0005645752 -0.0037994385 0.01550293 0.007171631 -0.025268555 -0.004211426 0.0027923584
-0.0059814453 -0.0049438477 0.0051879883 0.005493164 0.0047912598 0.011962891 0.012634277 0.006591797
0.0013885498 0.008117676 -0.008483887 0.003967285 -0.008850098 0.04296875 0.004638672 -0.02722168
-0.00051498413 0.032470703 -0.00047683716 0.0034484863 -0.032958984 0.01159668 -0.026489258 -0.002822876
0.013183594 -0.012084961 -0.0126953125 -0.0018539429 0.0009918213 -0.008178711 0.0056152344 0.002319336
0.007019043 -0.012451172 -0.010131836 0.0034179688 -0.022949219 -0.00680542 -0.00047302246 0.021972656
0.002105713 -0.00033950806 0.017211914 -0.0005226135 0.008483887 -0.009216309 -0.012084961 -0.0064697266
0.03125 0.005218506 0.006225586 -0.0022735596 -0.013366699 -0.0033874512 -0.02734375 0.010437012
-0.010192871 0.0017318726 0.009765625 0.011108398 0.020263672 -0.014343262 0.018188477 -0.0046691895
-0.0065612793 -0.024902344 0.052734375 0.02355957 -0.014343262 0.017456055 -0.00045776367 0.012084961
-0.0028686523 -0.0028076172 -0.012268066 0.0037078857 0.0035858154 0.012817383 -0.003112793 -0.029541016
0.010375977 -0.0047302246 0.010314941 0.0064697266 0.0024261475 -0.006652832 0.018310547 0.0023956299
-0.002746582 -0.004486084 -0.015136719 -0.0021209717 0.008422852 0.0066833496 0.010375977 -0.012390137
0.026245117 0.015258789 -0.0035095215 -0.0047302246 0.0038909912 0.025024414 0.020874023 -0.009216309
-0.010803223 0.00982666 0.0055236816 0.0040893555 0.007659912 0.006225586 0.007171631 -0.006225586
0.011108398 0.0012130737 0.01171875 -0.012390137 -0.0048828125 -0.022705078 -0.03149414 -0.0021362305
0.009765625 0.00091171265 0.0016784668 -0.043945312 -0.0026550293 -0.01361084 0.0058288574 -0.011779785
-0.023071289 -0.020385742 -0.03149414 0.011169434 -0.0028381348 -0.017211914 -0.0039367676 -0.025878906
-0.0029296875 -0.0025177002 -0.008972168 0.0015335083 -0.0004348755 -0.008422852 -0.024902344 -0.0078125
0.00035095215 -0.009399414 0.0008621216 0.0035552979 0.0009918213 -0.00340271 -0.018676758 -0.0015945435
0.0014266968 0.016845703 -0.008728027 -0.012084961 0.006011963 -0.009460449 -0.0119018555 0.025634766
-0.0011062622 0.0054016113 0.026000977 -0.012512207 0.008361816 -0.01977539 0.015991211 0.009033203
