data/probes_binary/layer_19/probe_analyzing.pth (torch, 6984 bytes, 1 tensors)

linear.weight bf16 [1, 2560]
000000 bf 3b 65 bb 9e bc 2c 3c 3b 3b 98 ba 66 3c 3b bb
       0.0058288574 -0.0034942627 -0.01928711 0.010498047 0.0028533936 -0.001159668 0.014038086 -0.0028533936
000010 b2 bb a2 3b 3d ba f3 bc 64 bb ee 3c 7c 3c 4d 3d
       -0.005432129 0.0049438477 -0.0007209778 -0.029663086 -0.003479004 0.029052734 0.015380859 0.050048828
000020 f1 bb ba ba df bc ee 39 78 3b d5 3b dc 3b 27 3b
       -0.0073547363 -0.0014190674 -0.02722168 0.00045394897 0.0037841797 0.006500244 0.006713867 0.0025482178
000030 44 3c 2a bd f7 3c 50 bb 6f bc 40 3d fd bb b4 bb
       0.011962891 -0.041503906 0.030151367 -0.0031738281 -0.014587402 0.046875 -0.0077209473 -0.005493164
000040 9b 3b 99 bc b4 3a 1b bc 8f 3c ad 3c e3 b9 37 3c
       0.0047302246 -0.018676758 0.001373291 -0.009460449 0.017456055 0.021118164 -0.00043296814 0.011169434
000050 cf bb 70 3c 65 3c 47 3b 2f bc fe bc 02 bc 20 39
       -0.0063171387 0.0146484375 0.013977051 0.003036499 -0.010681152 -0.03100586 -0.00793457 0.00015258789
000060 03 bb bf 3a b1 bc d2 3b 92 3b 82 39 e1 bc e6 bc
       -0.0019989014 0.0014572144 -0.021606445 0.0064086914 0.0044555664 0.00024795532 -0.02746582 -0.028076172
000070 03 bd dc 3a 9d ba 2b 3c 8b bb fd bb 31 3c 96 bb
       -0.031982422 0.0016784668 -0.0011978149 0.010437012 -0.0042419434 -0.0077209473 0.010803223 -0.0045776367
000080 f2 3b c2 bc 7f bb 5c 39 ef 39 79 bc 49 ba eb 3c
       0.007385254 -0.02368164 -0.0038909912 0.00020980835 0.00045585632 -0.015197754 -0.00076675415 0.028686523
000090 a6 bc 9f bb bd 3a 23 3b 66 3c fc 3c 81 39 ed bb
       -0.020263672 -0.004852295 0.0014419556 0.0024871826 0.014038086 0.030761719 0.00024604797 -0.007232666
0000a0 68 3b b0 ba 0e bc e0 bc f1 3c f3 bc cb 3a 5d bb
       0.003540039 -0.0013427734 -0.008666992 -0.02734375 0.029418945 -0.029663086 0.0015487671 -0.0033721924
0000b0 36 3c 0e 38 2b 3c 8c bc 32 bc 56 3c 26 3c 1d bb
       0.011108398 3.385544e-05 0.010437012 -0.017089844 -0.010864258 0.013061523 0.010131836 -0.0023956299
0000c0 a3 ba ac 3b 50 3c f7 bb 17 3d 8d 3c 60 b9 0f 3c
       -0.0012435913 0.0052490234 0.0126953125 -0.007537842 0.036865234 0.017211914 -0.00021362305 0.008728027
0000d0 ff 3b 38 3c ea bb 47 bc a6 3b 63 b8 4d 3c 4a ba
       0.0077819824 0.011230469 -0.0071411133 -0.012145996 0.005065918 -5.4121017e-05 0.012512207 -0.00077056885
0000e0 4d bc af bb 82 bb f8 3b 84 3b 49 bc 4e 3c 95 ba
       -0.012512207 -0.005340576 -0.003967285 0.0075683594 0.0040283203 -0.012268066 0.012573242 -0.0011367798
0000f0 00 3c 15 ba d6 3c fc b9 1d bd 81 3b 8c bb bb bc
       0.0078125 -0.0005683899 0.026123047 -0.00048065186 -0.038330078 0.0039367676 -0.004272461 -0.022827148
000100 c7 bc 34 bc e7 bc d9 3b 7b bd b6 bb f0 bb ef bc
       -0.024291992 -0.010986328 -0.028198242 0.0066223145 -0.061279297 -0.005554199 -0.0073242188 -0.029174805
000110 c8 3c 00 bc 81 bc 42 bc 74 bc 01 bd 25 bd 08 3c
       0.024414062 -0.0078125 -0.01574707 -0.01184082 -0.014892578 -0.03149414 -0.040283203 0.008300781
000120 83 bb c2 bb 1e 3c e6 3b 03 3c 3d bc 42 bc 15 bb
       -0.0039978027 -0.00592041 0.009643555 0.007019043 0.0079956055 -0.0115356445 -0.01184082 -0.0022735596
000130 41 bb da bb 87 3c d7 bb bc bb c7 3b b6 bb 2b 3a
       -0.0029449463 -0.006652832 0.016479492 -0.0065612793 -0.0057373047 0.006072998 -0.005554199 0.00065231323
000140 8b ba fe bc 3a 3c 0a 3b 30 bc 05 3d 21 3b 94 36
       -0.0010604858 -0.03100586 0.011352539 0.002105713 -0.0107421875 0.032470703 0.002456665 4.4107437e-06
000150 8e 3c 2e 3b 9a bb cb bc 84 bc 7a 3c 34 3c 0e 3c
       0.017333984 0.0026550293 -0.004699707 -0.024780273 -0.016113281 0.015258789 0.010986328 0.008666992
000160 19 3c 27 3c ea 3b d4 3b a0 3b 29 3b a1 bc 41 ba
       0.009338379 0.010192871 0.0071411133 0.0064697266 0.0048828125 0.0025787354 -0.01965332 -0.0007362366
000170 ff 3c ba bc b4 3b 02 bc 2f 3b a2 bc 19 3d 30 bb
       0.03112793 -0.022705078 0.005493164 -0.00793457 0.002670288 -0.01977539 0.037353516 -0.0026855469
000180 04 bc bb 3b 74 3b f1 3b 85 3b e1 bb 9e bb c6 3a
       -0.008056641 0.005706787 0.0037231445 0.0073547363 0.004058838 -0.006866455 -0.0048217773 0.0015106201
000190 18 3c 71 3a 4b 3c 44 3c 74 bc 1b 3b d6 3c 2a 3d
       0.009277344 0.00091934204 0.012390137 0.011962891 -0.014892578 0.0023651123 0.026123047 0.041503906
0001a0 61 bb 95 3b 09 3c 27 bd 0d bd 31 3b 6e bb 2c bc
       -0.0034332275 0.004547119 0.008361816 -0.040771484 -0.034423828 0.0027008057 -0.0036315918 -0.010498047
0001b0 6b 3b 4b bc 82 3b ef bc 7b 3a 3d 3c 6d 3c 11 3c
       0.0035858154 -0.012390137 0.003967285 -0.029174805 0.000957489 0.0115356445 0.014465332 0.008850098
0001c0 43 bc e9 bb f7 bb e6 bb 08 3b 7d bc 0c bd af 3a
       -0.0119018555 -0.0071105957 -0.007537842 -0.007019043 0.0020751953 -0.0154418945 -0.034179688 0.001335144
0001d0 48 bc 96 bb a0 bc 9a 3b cd bb a4 3a 39 bc 3a ba
       -0.012207031 -0.0045776367 -0.01953125 0.004699707 -0.0062561035 0.0012512207 -0.011291504 -0.0007095337
0001e0 b1 bc 61 bc 0a bc 6d bc 2c 3b ff 3c 91 3b d2 bc
       -0.021606445 -0.01373291 -0.008422852 -0.014465332 0.0026245117 0.03112793 0.004425049 -0.025634766
0001f0 83 38 45 bb 33 bc ac 3c 6b 3b cd 39 ba 3b b4 bb
       6.246567e-05 -0.0030059814 -0.010925293 0.020996094 0.0035858154 0.00039100647 0.0056762695 -0.005493164
