data/probes_binary/layer_1/probe_zooming_out.pth (torch, 6996 bytes, 1 tensors)

linear.weight bf16 [1, 2560]
-0.0010986328 -0.014343262 0.0072631836 0.052978516 -0.030639648 -0.018310547 0.02331543 -0.06347656
0.02722168 -0.0138549805 -0.024414062 -0.008666992 0.010375977 0.0037994385 0.03125 -0.030517578
-0.044433594 0.03125 -0.0047302246 -0.00075149536 0.0625 0.02709961 0.016357422 0.064453125
-0.008728027 -0.0036010742 -0.0011291504 -0.0625 0.038330078 0.002532959 -0.045654297 -0.030273438
-0.020141602 -0.0021362305 0.06225586 0.0029144287 -0.07421875 0.03125 -0.029541016 0.03564453
0.02709961 -0.002166748 -0.03112793 0.041015625 0.03125 -0.044921875 -0.017456055 -0.052246094
0.03125 -0.00043296814 0.05078125 0.053710938 0.030273438 -0.032470703 0.015380859 -0.04248047
-0.03125 -0.0012054443 -0.08105469 0.026611328 0.007385254 -0.08105469 -0.013793945 0.03930664
0.018310547 0.068847656 0.033691406 0.016845703 -0.0037384033 -0.014404297 0.007293701 0.045410156
-0.033203125 -0.016967773 0.0037231445 0.0154418945 -0.005065918 -0.009338379 -0.03112793 -0.016479492
-0.00039863586 -0.032226562 -0.017944336 0.03149414 0.029052734 -0.030273438 -0.0625 -0.014038086
-0.041259766 0.013366699 0.030029297 0.008056641 0.018798828 -0.00064086914 0.0024719238 -0.028686523
-0.018676758 0.013366699 0.036621094 -0.023925781 0.004211426 0.06347656 0.0017089844 -0.014587402
-0.0032348633 0.004180908 0.049072266 -0.016845703 -0.030151367 0.007293701 0.010681152 0.049316406
0.0051879883 -0.022583008 -0.043945312 -0.03564453 -0.038085938 0.055664062 -0.0625 0.033203125
-0.0078125 -0.03491211 0.008483887 -0.040039062 0.04638672 -0.041503906 0.028442383 0.029663086
0.029174805 0.007537842 -0.010192871 -0.0625 0.06640625 -0.0015029907 -0.012023926 -0.041503906
-0.03564453 -0.0390625 0.027954102 -0.0014343262 0.013305664 0.03100586 -0.036132812 0.032714844
0.030273438 -0.031982422 -0.030639648 -0.05419922 -0.017944336 0.021362305 -0.06298828 0.024047852
0.033935547 -0.0024261475 -0.030029297 -0.040039062 -0.027709961 0.063964844 -0.00044059753 -0.032470703
0.012390137 -0.0034484863 0.0015411377 -0.020629883 -0.0119018555 -0.030029297 -0.06347656 -0.018798828
0.008361816 -0.032714844 -0.03515625 -0.03125 -0.0039367676 -0.018798828 0.029052734 -0.0006790161
-0.014953613 0.007446289 -0.022460938 -0.01574707 -0.030517578 -0.022705078 -0.0625 0.00018882751
0.029052734 0.0390625 -0.03491211 0.06347656 -0.020507812 -0.032226562 0.028564453 0.033935547
-0.0030670166 -0.016357422 -0.01586914 0.017333984 0.01586914 -0.008850098 -0.01171875 -0.00023937225
-0.018554688 -0.033447266 0.015075684 0.037353516 -0.040771484 0.013977051 9.584427e-05 -0.00045013428
0.06347656 -0.033935547 -0.04638672 0.0038146973 -0.048583984 -0.029907227 0.0023040771 0.0010528564
-0.022827148 -0.04296875 0.046875 -0.036865234 -0.028198242 0.030029297 0.056884766 -0.00970459
0.028930664 0.018676758 -0.036621094 -0.04248047 0.0625 0.014526367 0.037109375 0.06933594
0.006591797 0.0625 0.0625 -0.0021820068 0.0022888184 0.026855469 -0.00088882446 0.030151367
-0.026489258 0.06201172 -0.010375977 -0.013305664 -0.026855469 -0.01159668 -0.030395508 -0.03857422
0.007080078 0.03112793 0.000121593475 -0.03857422 -0.033447266 -0.03125 -0.002243042 -0.030517578
00000000: 90ba 6bbc ee3b 593d fbbc 96bc bf3c 82bd
00000010: df3c 63bc c8bc 0ebc 2a3c 793b 003d fabc
00000020: 36bd 003d 9bbb 45ba 803d de3c 863c 843d
00000030: 0fbc 6cbb 94ba 80bd 1d3d 263b 3bbd f8bc
00000040: a5bc 0cbb 7f3d 3f3b 98bd 003d f2bc 123d
00000050: de3c 0ebb ffbc 283d 003d 38bd 8fbc 56bd
00000060: 003d e3b9 503d 5c3d f83c 05bd 7c3c 2ebd
00000070: 00bd 9eba a6bd da3c f23b a6bd 62bc 213d
00000080: 963c 8d3d 0a3d 8a3c 75bb 6cbc ef3b 3a3d
00000090: 08bd 8bbc 743b 7d3c a6bb 19bc ffbc 87bc
000000a0: d1b9 04bd 93bc 013d ee3c f8bc 80bd 66bc
000000b0: 29bd 5b3c f63c 043c 9a3c 28ba 223b ebbc
000000c0: 99bc 5b3c 163d c4bc 8a3b 823d e03a 6fbc
000000d0: 54bb 893b 493d 8abc f7bc ef3b 2f3c 4a3d
000000e0: aa3b b9bc 34bd 12bd 1cbd 643d 80bd 083d
000000f0: 00bc 0fbd 0b3c 24bd 3e3d 2abd e93c f33c
00000100: ef3c f73b 27bc 80bd 883d c5ba 45bc 2abd
00000110: 12bd 20bd e53c bcba 5a3c fe3c 14bd 063d
00000120: f83c 03bd fbbc 5ebd 93bc af3c 81bd c53c
00000130: 0b3d 1fbb f6bc 24bd e3bc 833d e7b9 05bd
00000140: 4b3c 62bb ca3a a9bc 43bc f6bc 82bd 9abc
00000150: 093c 06bd 10bd 00bd 81bb 9abc ee3c 32ba
00000160: 75bc f43b b8bc 81bc fabc babc 80bd 4639
00000170: ee3c 203d 0fbd 823d a8bc 04bd ea3c 0b3d
00000180: 49bb 86bc 82bc 8e3c 823c 11bc 40bc 7bb9
00000190: 98bc 09bd 773c 193d 27bd 653c c938 ecb9
000001a0: 823d 0bbd 3ebd 7a3b 47bd f5bc 173b 8a3a
000001b0: bbbc 30bd 403d 17bd e7bc f63c 693d 1fbc
000001c0: ed3c 993c 16bd 2ebd 803d 6e3c 183d 8e3d
000001d0: d83b 803d 803d 0fbb 163b dc3c 69ba f73c
000001e0: d9bc 7e3d 2abc 5abc dcbc 3ebc f9bc 1ebd
000001f0: e83b ff3c ff38 1ebd 09bd 00bd 13bb fabc
