data/probes_binary/layer_25/probe_abstracting.pth (torch, 6996 bytes, 1 tensors)

linear.weight bf16 [1, 2560]
000000 ad b8 20 3d 32 3d 02 bd 49 3c 44 3b 28 3c 6d 3b
       -8.249283e-05 0.0390625 0.04345703 -0.03173828 0.012268066 0.0029907227 0.010253906 0.003616333
000010 fe 3c bc 3b 20 3c b7 bc 8a bb 91 bc 0c bb 6f bc
       0.03100586 0.0057373047 0.009765625 -0.022338867 -0.004211426 -0.017700195 -0.0021362305 -0.014587402
000020 02 bc 74 3c c2 b9 cf 38 d5 bc d3 bc 06 bd 82 ba
       -0.00793457 0.014892578 -0.00037002563 9.870529e-05 -0.026000977 -0.025756836 -0.032714844 -0.0009918213
000030 3a bc 79 bd ac 3a 53 3c 0f bb 08 3d ea 3c 1d bb
       -0.011352539 -0.060791016 0.0013122559 0.012878418 -0.0021820068 0.033203125 0.028564453 -0.0023956299
000040 02 3d 4a 3c 8f 3c d9 b9 bf bc 1a bc 94 bc 27 3b
       0.03173828 0.012329102 0.017456055 -0.00041389465 -0.02331543 -0.009399414 -0.018066406 0.0025482178
000050 41 bb eb bb 55 3c 77 3a b3 3b 52 3c ee bc 2c 3c
       -0.0029449463 -0.007171631 0.013000488 0.0009422302 0.0054626465 0.012817383 -0.029052734 0.010498047
000060 2d 3c 16 bc 46 bc d6 3b b0 3b 7b 3c 3e bc 36 3c
       0.010559082 -0.009155273 -0.012084961 0.0065307617 0.0053710938 0.015319824 -0.01159668 0.011108398
000070 02 bc 6e 3b d8 3b 1f 3c 0d 3b 58 3b 72 bc 6f bc
       -0.00793457 0.0036315918 0.006591797 0.00970459 0.0021514893 0.0032958984 -0.014770508 -0.014587402
000080 7e bd 8e 3b 50 3b 65 bc e9 3c cd 3c 16 bd 03 3d
       -0.06201172 0.004333496 0.0031738281 -0.013977051 0.028442383 0.025024414 -0.036621094 0.031982422
000090 ff 3c d1 bc 3e 3a f5 3b d3 bb 93 bc 8c bc 8c 3b
       0.03112793 -0.025512695 0.0007247925 0.0074768066 -0.006439209 -0.017944336 -0.017089844 0.004272461
0000a0 00 bd 94 3b a1 ba 93 3b 32 bc 04 bc 4b ba da ba
       -0.03125 0.0045166016 -0.0012283325 0.004486084 -0.010864258 -0.008056641 -0.00077438354 -0.001663208
0000b0 4e 3c f8 3b b2 3b 1d 3c b3 3c 54 bb 75 3c 43 3c
       0.012573242 0.0075683594 0.005432129 0.0095825195 0.021850586 -0.0032348633 0.014953613 0.0119018555
0000c0 aa 3a cf 3b 7d bb db bc d2 bc e9 bb 2e 3c b2 bc
       0.0012969971 0.0063171387 -0.0038604736 -0.026733398 -0.025634766 -0.0071105957 0.010620117 -0.021728516
0000d0 75 3c 75 3c 71 3b 8a bc d9 3c 3b bc 8b bc 7e 3b
       0.014953613 0.014953613 0.0036773682 -0.016845703 0.026489258 -0.011413574 -0.016967773 0.0038757324
0000e0 78 3c 50 bc c3 bb fa 3b 98 bc 24 bc 0d bc 84 3b
       0.015136719 -0.0126953125 -0.0059509277 0.0076293945 -0.018554688 -0.010009766 -0.008605957 0.0040283203
0000f0 45 bc b0 bc 89 3c 9e 3c 1b bb 8b 3c 5d 3b 6f 3c
       -0.012023926 -0.021484375 0.016723633 0.01928711 -0.0023651123 0.016967773 0.0033721924 0.014587402
000100 9f 3b c5 bb 40 bb 81 3c 0c bd 0a bb ed bb 3b bd
       0.004852295 -0.006011963 -0.0029296875 0.01574707 -0.034179688 -0.002105713 -0.007232666 -0.045654297
000110 5c 3c 70 bc 81 bc 6c 3a 06 3c 48 3b d3 bb 1f 3d
       0.013427734 -0.0146484375 -0.01574707 0.00090026855 0.008178711 0.0030517578 -0.006439209 0.03881836
000120 fd bc ad 3b 16 3c 5a bc 70 b8 96 3c c5 3c fa ba
       -0.030883789 0.005279541 0.009155273 -0.013305664 -5.722046e-05 0.018310547 0.024047852 -0.0019073486
000130 df 3c 15 3b 81 3b ea bb 7a bb 36 3b 7a 3c db 3a
       0.02722168 0.0022735596 0.0039367676 -0.0071411133 -0.0038146973 0.0027770996 0.015258789 0.0016708374
000140 31 3b f1 3a 82 3d 2a bc ae bb a5 ba 01 3d a5 3c
       0.0027008057 0.0018386841 0.06347656 -0.010375977 -0.0053100586 -0.0012588501 0.03149414 0.020141602
000150 53 3b 3f bb 70 3c eb 3b 7f 3c 18 3c 37 3c b1 3b
       0.0032196045 -0.0029144287 0.0146484375 0.007171631 0.015563965 0.009277344 0.011169434 0.0054016113
000160 57 bc 89 bc 00 3c 3e 3a 80 bb 3c bc 50 3c 80 3c
       -0.013122559 -0.016723633 0.0078125 0.0007247925 -0.00390625 -0.011474609 0.0126953125 0.015625
000170 03 bc 48 bc 93 3b ed bb ea bc 59 3c 10 3c 05 bb
       -0.0079956055 -0.012207031 0.004486084 -0.007232666 -0.028564453 0.013244629 0.0087890625 -0.002029419
000180 59 bc 87 bc f4 bc 83 3b 0b 3a e5 3c d4 3b 86 b9
       -0.013244629 -0.016479492 -0.029785156 0.0039978027 0.0005302429 0.027954102 0.0064697266 -0.00025558472
000190 dd b9 bc bc 53 bc 9d bb 6c 3d 99 bc d2 bc d7 3c
       -0.00042152405 -0.022949219 -0.012878418 -0.0047912598 0.057617188 -0.018676758 -0.025634766 0.026245117
0001a0 ab 3c 15 bc ce bb 40 bc 53 3c 0a bd 76 bc 66 bc
       0.020874023 -0.009094238 -0.006286621 -0.01171875 0.012878418 -0.033691406 -0.015014648 -0.014038086
0001b0 98 3b 7d bd 3c bb 14 bd 26 3d 63 bb 9b 3a 06 3d
       0.004638672 -0.061767578 -0.0028686523 -0.036132812 0.040527344 -0.0034637451 0.0011825562 0.032714844
0001c0 ec 3a ae ba 8f ba 11 bb 90 3b 0e bc 8d 3c fa bc
       0.0018005371 -0.0013275146 -0.0010910034 -0.0022125244 0.0043945312 -0.008666992 0.017211914 -0.030517578
0001d0 88 3a 01 bc b5 3a 02 bd 7f bc a1 3b 62 3c 44 3b
       0.0010375977 -0.007873535 0.0013809204 -0.03173828 -0.015563965 0.00491333 0.013793945 0.0029907227
0001e0 56 bd 2e 3c 38 bb 4a bb 10 3c a5 bc 73 bc e6 bb
       -0.052246094 0.010620117 -0.0028076172 -0.0030822754 0.0087890625 -0.020141602 -0.014831543 -0.007019043
0001f0 01 ba 60 3a 0e 3b c9 bc 83 bb 4c 3b cc 3a 93 39
       -0.00049209595 0.0008544922 0.002166748 -0.024536133 -0.0039978027 0.003112793 0.0015563965 0.00028038025
