data/probes_binary/layer_13/probe_concretizing.pth (torch, 7002 bytes, 1 tensors)

linear.weight bf16 [1, 2560]
0.012512207 0.0625 -0.008666992 0.008728027 -0.020996094 -0.020263672 -0.0013580322 0.034179688
-0.0013809204 0.0146484375 -0.017822266 -0.0030517578 -0.0036010742 -0.0040893555 -0.015258789 -0.002029419
0.03100586 -0.029418945 -0.003753662 0.01171875 -0.0075683594 -0.012145996 -0.0077209473 -0.021118164
-0.02709961 -0.0154418945 0.005340576 0.020507812 -0.03125 0.008239746 0.06201172 0.015625
-0.026123047 -0.012207031 0.009460449 -0.0004386902 0.0015182495 0.042236328 -0.02331543 -0.017944336
0.009033203 0.002029419 0.035888672 -0.01965332 0.014282227 0.014892578 -0.0032958984 -0.028686523
0.028198242 0.0063476562 0.005584717 -0.015380859 -0.00970459 0.0072021484 0.021362305 0.015563965
0.010375977 0.038330078 9.0524554e-07 -0.030761719 -0.020019531 -0.015258789 -0.0012283325 0.021728516
-0.018066406 0.0115356445 -0.025268555 0.008911133 0.007507324 0.030273438 0.020629883 0.015319824
-0.030761719 0.013244629 -0.003189087 -0.018798828 -0.02746582 0.026611328 -0.03112793 0.03112793
0.012023926 0.0011291504 -0.009338379 -0.0154418945 0.021362305 -0.0234375 -0.016967773 0.0077819824
-0.02758789 -0.032226562 0.005004883 0.029907227 0.014709473 -0.03149414 -0.018310547 -0.009460449
0.0022735596 0.013122559 -0.021118164 -0.014282227 -0.012145996 -0.006652832 0.0023651123 0.040039062
0.02709961 0.0022735596 -0.006378174 0.0065307617 0.011962891 -0.017578125 0.022705078 -0.017456055
-0.009094238 -0.012390137 0.031982422 -0.017578125 0.0079956055 -0.03125 -0.025146484 -0.01574707
-0.02734375 -0.014343262 -0.009887695 0.024047852 -0.00089263916 -0.003036499 0.012573242 -0.017456055
0.028442383 0.0046691895 -0.0075683594 0.031982422 0.01953125 -0.030151367 -0.022583008 -0.029907227
-0.03125 -0.0015106201 -0.001876831 -0.015380859 -0.02722168 -0.0002670288 0.021484375 0.030883789
0.029663086 -0.026123047 -0.023925781 0.011657715 -0.00027656555 0.00011014938 0.02319336 0.0020446777
0.00089645386 -0.03149414 0.017089844 -0.006439209 -0.025512695 -0.0021209717 0.0074157715 0.024536133
0.032226562 -0.012268066 0.014709473 0.006134033 0.025146484 0.021850586 -0.012390137 -0.017333984
-0.029052734 0.0063171387 0.03100586 -0.008483887 0.016479492 -0.020019531 0.04321289 0.008972168
0.015014648 0.010681152 0.019165039 -0.0030059814 0.03125 0.015625 -0.008483887 0.0024414062
-0.01574707 -0.05053711 -0.014892578 -0.00079345703 -0.0038909912 -0.03149414 -0.023925781 -0.018676758
0.028686523 -0.008972168 0.005218506 0.0008392334 0.015258789 -0.009033203 -0.0005950928 -0.005279541
-0.0011901855 -0.03112793 -0.0005607605 -0.03491211 -0.033203125 0.0013809204 -0.01928711 0.027709961
-0.025390625 0.020385742 -0.0007324219 0.009887695 0.007293701 -0.004180908 0.00340271 0.002456665
0.011779785 -0.014526367 -0.0010299683 0.03125 -0.004058838 -0.0107421875 -0.014709473 -0.017700195
-0.008911133 0.009033203 -0.04321289 -0.0014572144 -0.0004386902 -0.023071289 0.013000488 -0.04711914
-0.021118164 0.018066406 -0.0025177002 -0.020751953 0.020019531 -0.0030670166 0.007080078 0.0031433105
0.032958984 0.025390625 0.026123047 0.021728516 0.01940918 0.0013961792 -0.03173828 0.019165039
0.017333984 -0.011230469 0.01953125 0.0036468506 -0.049072266 -0.011962891 -0.024902344 0.0047912598
00000000: 4d3c 803d 0ebc 0f3c acbc a6bc b2ba 0c3d
00000010: b5ba 703c 92bc 48bb 6cbb 86bb 7abc 05bb
00000020: fe3c f1bc 76bb 403c f8bb 47bc fdbb adbc
00000030: debc 7dbc af3b a83c 00bd 073c 7e3d 803c
00000040: d6bc 48bc 1b3c e6b9 c73a 2d3d bfbc 93bc
00000050: 143c 053b 133d a1bc 6a3c 743c 58bb ebbc
00000060: e73c d03b b73b 7cbc 1fbc ec3b af3c 7f3c
00000070: 2a3c 1d3d 7335 fcbc a4bc 7abc a1ba b23c
00000080: 94bc 3d3c cfbc 123c f63b f83c a93c 7b3c
00000090: fcbc 593c 51bb 9abc e1bc da3c ffbc ff3c
000000a0: 453c 943a 19bc 7dbc af3c c0bc 8bbc ff3b
000000b0: e2bc 04bd a43b f53c 713c 01bd 96bc 1bbc
000000c0: 153b 573c adbc 6abc 47bc dabb 1b3b 243d
000000d0: de3c 153b d1bb d63b 443c 90bc ba3c 8fbc
000000e0: 15bc 4bbc 033d 90bc 033c 00bd cebc 81bc
000000f0: e0bc 6bbc 22bc c53c 6aba 47bb 4e3c 8fbc
00000100: e93c 993b f8bb 033d a03c f7bc b9bc f5bc
00000110: 00bd c6ba f6ba 7cbc dfbc 8cb9 b03c fd3c
00000120: f33c d6bc c4bc 3f3c 91b9 e738 be3c 063b
00000130: 6b3a 01bd 8c3c d3bb d1bc 0bbb f33b c93c
00000140: 043d 49bc 713c c93b ce3c b33c 4bbc 8ebc
00000150: eebc cf3b fe3c 0bbc 873c a4bc 313d 133c
00000160: 763c 2f3c 9d3c 45bb 003d 803c 0bbc 203b
00000170: 81bc 4fbd 74bc 50ba 7fbb 01bd c4bc 99bc
00000180: eb3c 13bc ab3b 5c3a 7a3c 14bc 1cba adbb
00000190: 9cba ffbc 13ba 0fbd 08bd b53a 9ebc e33c
000001a0: d0bc a73c 40ba 223c ef3b 89bb 5f3b 213b
000001b0: 413c 6ebc 87ba 003d 85bb 30bc 71bc 91bc
000001c0: 12bc 143c 31bd bfba e6b9 bdbc 553c 41bd
000001d0: adbc 943c 25bb aabc a43c 49bb e83b 4e3b
000001e0: 073d d03c d63c b23c 9f3c b73a 02bd 9d3c
000001f0: 8e3c 38bc a03c 6f3b 49bd 44bc ccbc 9d3b
