data/probes_binary/layer_20/probe_emotion_receiving.pth (torch, 7160 bytes, 1 tensors)

linear.weight bf16 [1, 2560]
00000000: fc3a e6bb 9e3b c63c 27bc e53b bcbc 9c3a
00000010: d1bb 9cbb b4b9 a6b9 8b3a c4bc 083c ffbc
00000020: 923b c83a 71bc d639 cd3b 043c 8d3a 19bd
00000030: 88bb 5cbb 23bb 1abc 87bc c43c 2f38 a6ba
00000040: b73c 90bc bc3b 4b3c 56bc 1a3c 463b 2bbb
00000050: 26bc f1bb 4c3c 5cbb 62bc 1f3c ce3c e13a
00000060: 083d b1ba 143b ef3b 84bb afba d03b 07bb
00000070: fa3b 883b e23b 83bb 4f3c 973c bfbc e03b
00000080: 103b 703c 63bb 113c 0eba 283d 85bc ed39
00000090: a2bc d5bc 053b 343b 00bd 3cbc 2d3c 7cbb
000000a0: 643c d739 123a 0c3b 803b 01bc 00bd 93ba
000000b0: f43c d03b 0a3c 153c 9abb 2d3c b8bb dfba
000000c0: f03a aa3b 9cbc a23c 66bc 333c c5bc 133c
000000d0: e93b f3bc b03c 2f3c 91bc 6d3c efbc 1abc
000000e0: 87bb f33c 0bba 58bc 6c3d 66ba 8c3c 563b
000000f0: 0c3b 37bb 6cbc c1bc 6abc 98b7 04ba b5bc
00000100: fcbc 0c3b 293c 57bc 0a3d 623c bbb8 82bc
00000110: 993b 9ebc fa3c 22bc 1d3b bfbc adbb f5bb
00000120: 673c 843b e63c 2b3c f9bb 313b 7abc e0ba
00000130: 6bbd 0dbc d0bb cabb 45bc b23c 12bd c9bb
00000140: 8cbc 9e3a ebbc e6bc 083d bfbb a73b 41bc
00000150: 283c 283b 643c d8bb 1b3c d8bb 61bc 173b
00000160: b43b a9bb 1abb aa3b 763b a9bb a8bb 94bb
00000170: 1abb b1bc 0b3b 9e3b 0d3c fabc 78bb 6f3b
00000180: 8dba b83b c4ba 05bc 5ebb b43b 6f3b 923a
00000190: edba 3f3b 7f3b c839 bf3c 2abb e13c c9bc
000001a0: d23b 6f3b a63b c7ba debb cabb e63b 64bc
000001b0: d6bc 4d3b 94bb b5bc f7ba 403c a7bb 163d
000001c0: c03c 2d3b 963c 0cbc 5cbb 35bc 853c bcbb
000001d0: 043d efba 34b9 e0bc 4dbb fc3b 0a3c fd3a
000001e0: 3739 e2bc 21bb 033c 36bb 0c3c 36bc d0bb
000001f0: dfbb 1abc 973c cd3b a53b 5b3c 013c 403b
0.0019226074 -0.007019043 0.0048217773 0.024169922 -0.010192871 0.0069885254 -0.022949219 0.0011901855
-0.006378174 -0.004760742 -0.00034332275 -0.00031661987 0.0010604858 -0.023925781 0.008300781 -0.03112793
0.0044555664 0.0015258789 -0.014709473 0.0004081726 0.0062561035 0.008056641 0.0010757446 -0.037353516
-0.0041503906 -0.0033569336 -0.0024871826 -0.009399414 -0.016479492 0.023925781 4.172325e-05 -0.0012664795
0.022338867 -0.017578125 0.0057373047 0.012390137 -0.013061523 0.009399414 0.0030212402 -0.002609253
-0.010131836 -0.0073547363 0.012451172 -0.0033569336 -0.013793945 0.00970459 0.025146484 0.0017166138
0.033203125 -0.0013504028 0.0022583008 0.007293701 -0.0040283203 -0.001335144 0.0063476562 -0.0020599365
0.0076293945 0.0041503906 0.0068969727 -0.0039978027 0.012634277 0.018432617 -0.02331543 0.0068359375
0.0021972656 0.0146484375 -0.0034637451 0.008850098 -0.000541687 0.041015625 -0.016235352 0.00045204163
-0.01977539 -0.026000977 0.002029419 0.002746582 -0.03125 -0.011474609 0.010559082 -0.0038452148
0.013916016 0.00041007996 0.0005569458 0.0021362305 0.00390625 -0.007873535 -0.03125 -0.001121521
0.029785156 0.0063476562 0.008422852 0.009094238 -0.004699707 0.010559082 -0.0056152344 -0.001701355
0.0018310547 0.0051879883 -0.019042969 0.01977539 -0.014038086 0.010925293 -0.024047852 0.008972168
0.0071105957 -0.029663086 0.021484375 0.010681152 -0.017700195 0.014465332 -0.029174805 -0.009399414
-0.004119873 0.029663086 -0.0005302429 -0.013183594 0.057617188 -0.0008773804 0.017089844 0.0032653809
0.0021362305 -0.0027923584 -0.014404297 -0.02355957 -0.014282227 -1.8119812e-05 -0.00050354004 -0.022094727
-0.030761719 0.0021362305 0.010314941 -0.013122559 0.033691406 0.013793945 -8.916855e-05 -0.01586914
0.0046691895 -0.01928711 0.030517578 -0.009887695 0.0023956299 -0.02331543 -0.005279541 -0.0074768066
0.014099121 0.0040283203 0.028076172 0.010437012 -0.007598877 0.0027008057 -0.015258789 -0.0017089844
-0.057373047 -0.008605957 -0.0063476562 -0.006164551 -0.012023926 0.021728516 -0.03564453 -0.006134033
-0.017089844 0.0012054443 -0.028686523 -0.028076172 0.033203125 -0.0058288574 0.0050964355 -0.011779785
0.010253906 0.0025634766 0.013916016 -0.006591797 0.009460449 -0.006591797 -0.01373291 0.0023040771
0.005493164 -0.0051574707 -0.0023498535 0.0051879883 0.003753662 -0.0051574707 -0.005126953 -0.0045166016
-0.0023498535 -0.021606445 0.0021209717 0.0048217773 0.008605957 -0.030517578 -0.0037841797 0.0036468506
-0.0010757446 0.0056152344 -0.0014953613 -0.008117676 -0.0033874512 0.005493164 0.0036468506 0.0011138916
-0.0018081665 0.0029144287 0.0038909912 0.00038146973 0.02331543 -0.0025939941 0.02746582 -0.024536133
0.0064086914 0.0036468506 0.005065918 -0.0015182495 -0.0067749023 -0.006164551 0.007019043 -0.013916016
-0.026123047 0.0031280518 -0.0045166016 -0.022094727 -0.0018844604 0.01171875 -0.0050964355 0.036621094
0.0234375 0.0026397705 0.018310547 -0.008544922 -0.0033569336 -0.011047363 0.016235352 -0.0057373047
0.032226562 -0.0018234253 -0.00017166138 -0.02734375 -0.0031280518 0.0076904297 0.008422852 0.0019302368
0.0001745224 -0.02758789 -0.002456665 0.0079956055 -0.0027770996 0.008544922 -0.011108398 -0.0063476562
-0.00680542 -0.009399414 0.018432617 0.0062561035 0.0050354004 0.013366699 0.007873535 0.0029296875
