data/probes_binary/layer_20/probe_convergent_thinking.pth (torch, 7172 bytes, 1 tensors)

linear.weight bf16 [1, 2560]
0	0xbc49	-0.012268066
1	0xbaee	-0.0018157959
2	0xbcf8	-0.030273438
3	0x3d4d	0.050048828
4	0xbccb	-0.024780273
5	0x3b8c	0.004272461
6	0xbbbb	-0.005706787
7	0xbc95	-0.018188477
8	0xbb75	-0.0037384033
9	0xbb7a	-0.0038146973
10	0x3a37	0.0006980896
11	0x3c00	0.0078125
12	0x3a80	0.0009765625
13	0x3b94	0.0045166016
14	0xbb80	-0.00390625
15	0xbbae	-0.0053100586
16	0x3bd0	0.0063476562
17	0x3cc6	0.024169922
18	0xbbdb	-0.0066833496
19	0x39cd	0.00039100647
20	0x3ae5	0.0017471313
21	0x3c77	0.015075684
22	0xbb16	-0.0022888184
23	0x3d09	0.033447266
24	0x3d1a	0.037597656
25	0x3ca0	0.01953125
26	0x3a72	0.00092315674
27	0xbc11	-0.008850098
28	0xbc3a	-0.011352539
29	0x39f3	0.00046348572
30	0xbc1c	-0.009521484
31	0x3b11	0.0022125244
32	0x3cf9	0.030395508
33	0xbc79	-0.015197754
34	0x3bbd	0.0057678223
35	0x3b5e	0.0033874512
36	0xbd42	-0.04736328
37	0xbd4a	-0.049316406
38	0xbbce	-0.006286621
39	0x3b88	0.0041503906
40	0xbb97	-0.0046081543
41	0xba94	-0.0011291504
42	0x3bf1	0.0073547363
43	0x3b51	0.003189087
44	0xb99e	-0.00030136108
45	0x3b9e	0.0048217773
46	0xbb9c	-0.004760742
47	0x3c2b	0.010437012
48	0xbc28	-0.010253906
49	0x3cff	0.03112793
50	0xbabd	-0.0014419556
51	0x3ae3	0.0017318726
52	0xbbd6	-0.0065307617
53	0x3bb5	0.0055236816
54	0x3b3a	0.0028381348
55	0xbc3e	-0.01159668
56	0x3cd3	0.025756836
57	0x3bda	0.006652832
58	0xbb8b	-0.0042419434
59	0x3bb4	0.005493164
60	0xbbf3	-0.0074157715
61	0x3b16	0.0022888184
62	0x3a3b	0.0007133484
63	0x3c22	0.009887695
64	0xbc44	-0.011962891
65	0xba82	-0.0009918213
66	0xbcce	-0.025146484
67	0x3d12	0.03564453
68	0x3b87	0.004119873
69	0x3899	7.2956085e-05
70	0xbb01	-0.0019683838
71	0x3cb1	0.021606445
72	0xbcee	-0.029052734
73	0xbcc4	-0.023925781
74	0xbb37	-0.0027923584
75	0x3a8d	0.0010757446
76	0x3c16	0.009155273
77	0x3c7e	0.01550293
78	0xbb41	-0.0029449463
79	0xba00	-0.00048828125
80	0xbcf7	-0.030151367
81	0x3b82	0.003967285
82	0xbc18	-0.009277344
83	0xbbb5	-0.0055236816
84	0xbc89	-0.016723633
85	0xbb8f	-0.0043640137
86	0xbce1	-0.02746582
87	0x3b28	0.0025634766
88	0xbc9a	-0.018798828
89	0xbacc	-0.0015563965
90	0xbcb0	-0.021484375
91	0xbc0e	-0.008666992
92	0xbb71	-0.0036773682
93	0x3c04	0.008056641
94	0x3bfe	0.007751465
95	0x3ce1	0.02746582
96	0x3b1b	0.0023651123
97	0x3c48	0.012207031
98	0xba36	-0.0006942749
99	0xbc04	-0.008056641
100	0xbc49	-0.012268066
101	0xbce4	-0.027832031
102	0x3ce5	0.027954102
103	0xbba6	-0.005065918
104	0x3bcb	0.0061950684
105	0x3c55	0.013000488
106	0xbacc	-0.0015563965
107	0xbc0a	-0.008422852
108	0x3cd1	0.025512695
109	0x3c33	0.010925293
110	0x3c2e	0.010620117
111	0x3c24	0.010009766
112	0xbca2	-0.01977539
113	0x3cd6	0.026123047
114	0xbafd	-0.0019302368
115	0x3c39	0.011291504
116	0x3a10	0.0005493164
117	0xbbb0	-0.0053710938
118	0xbcaf	-0.021362305
119	0x3b23	0.0024871826
120	0xbd13	-0.035888672
121	0x3a4d	0.00078201294
122	0x3d00	0.03125
123	0xbcaa	-0.020751953
124	0xbcd3	-0.025756836
125	0xbab7	-0.0013961792
126	0x3ae7	0.0017623901
127	0xbc51	-0.012756348
128	0x3cdd	0.026977539
129	0x3b89	0.004180908
130	0x3d0d	0.034423828
131	0x3c73	0.014831543
132	0xbbf7	-0.007537842
133	0x3c31	0.010803223
134	0xbc28	-0.010253906
135	0xbcff	-0.03112793
136	0xbd32	-0.04345703
137	0xbc6d	-0.014465332
138	0xbc39	-0.011291504
139	0x3bbd	0.0057678223
140	0xb891	-6.914139e-05
141	0xbcb4	-0.021972656
142	0x3d00	0.03125
143	0xbc50	-0.0126953125
144	0x3b9b	0.0047302246
145	0xbbcc	-0.006225586
146	0xbc70	-0.0146484375
147	0xbd2a	-0.041503906
148	0xbce0	-0.02734375
149	0x3c46	0.012084961
150	0xbbbe	-0.00579834
151	0xbac6	-0.0015106201
152	0xbd00	-0.03125
153	0x3d3e	0.04638672
154	0x3a78	0.0009460449
155	0xbc00	-0.0078125
156	0xba4a	-0.00077056885
157	0x3c4e	0.012573242
158	0xbc38	-0.011230469
159	0x3cfa	0.030517578
160	0x3d0d	0.034423828
161	0x3ad4	0.0016174316
162	0xbd02	-0.03173828
163	0x3d0a	0.033691406
164	0x3c2c	0.010498047
165	0x3c57	0.013122559
166	0x3ce2	0.02758789
167	0xbc07	-0.008239746
168	0x3c81	0.01574707
169	0xba94	-0.0011291504
170	0xbc9d	-0.019165039
171	0x3b7b	0.003829956
172	0xbbcb	-0.0061950684
173	0x3bd9	0.0066223145
174	0xbb3b	-0.0028533936
175	0x3ba6	0.005065918
176	0x3c66	0.014038086
177	0x3d59	0.052978516
178	0x3c12	0.008911133
179	0x3c85	0.016235352
180	0x3d4b	0.049560547
181	0x3aba	0.0014190674
182	0xbb16	-0.0022888184
183	0xbc29	-0.010314941
184	0x3b83	0.0039978027
185	0x3be9	0.0071105957
186	0xbcf2	-0.029541016
187	0x3cfe	0.03100586
188	0x3c36	0.011108398
189	0xba71	-0.00091934204
190	0x3b08	0.0020751953
191	0xbb99	-0.0046691895
192	0x3c88	0.016601562
193	0xbcad	-0.021118164
194	0x3ae1	0.0017166138
195	0xbb78	-0.0037841797
196	0x3a04	0.00050354004
197	0x3b7b	0.003829956
198	0xbd43	-0.047607422
199	0x3b93	0.004486084
200	0x3a61	0.0008583069
201	0x3c1c	0.009521484
202	0x3b11	0.0022125244
203	0xbd1c	-0.038085938
204	0x3d08	0.033203125
205	0x3bdb	0.0066833496
206	0xbc24	-0.010009766
207	0x3c5b	0.013366699
208	0xbb09	-0.002090454
209	0x3b0a	0.002105713
210	0x3b94	0.0045166016
211	0xbca5	-0.020141602
212	0xbcfb	-0.030639648
213	0xbd30	-0.04296875
214	0x3c69	0.014221191
215	0x3c60	0.013671875
216	0x3c96	0.018310547
217	0x3b0a	0.002105713
218	0xbb91	-0.004425049
219	0xbd07	-0.032958984
220	0xbbf3	-0.0074157715
221	0xbc31	-0.010803223
222	0xbb73	-0.0037078857
223	0x3b4f	0.0031585693
224	0x3cb3	0.021850586
225	0xbc67	-0.014099121
226	0x3be1	0.006866455
227	0x3c5b	0.013366699
228	0x3c9d	0.019165039
229	0x3d01	0.03149414
230	0xbc24	-0.010009766
231	0xbb6e	-0.0036315918
232	0x3aa1	0.0012283325
233	0x3b0d	0.0021514893
234	0xba63	-0.0008659363
235	0x3b4b	0.0030975342
236	0x3c7d	0.0154418945
237	0x3a1f	0.00060653687
238	0x3d1d	0.038330078
239	0xbab8	-0.0014038086
240	0x3aa1	0.0012283325
241	0x3d34	0.043945312
242	0xbb8f	-0.0043640137
243	0xbc60	-0.013671875
244	0x3c63	0.0138549805
245	0xba59	-0.0008277893
246	0x3c61	0.01373291
247	0x3b2a	0.0025939941
248	0x3b61	0.0034332275
249	0xbbc5	-0.006011963
250	0x3cda	0.026611328
251	0xbc4d	-0.012512207
252	0xbceb	-0.028686523
253	0x3cda	0.026611328
254	0xbb17	-0.0023040771
255	0xbb96	-0.0045776367
