data/probes_binary/layer_20/probe_situation_selection.pth (torch, 7172 bytes, 1 tensors)

linear.weight bf16 [1, 2560]
0	0xbc3c	-0.011474609
1	0xbc3b	-0.011413574
2	0x3c64	0.013916016
3	0x3c1a	0.009399414
4	0x3cf2	0.029541016
5	0xbc9c	-0.019042969
6	0x3ccf	0.025268555
7	0x3b9b	0.0047302246
8	0xbc51	-0.012756348
9	0xbbc9	-0.006134033
10	0xbc6b	-0.014343262
11	0xbcd5	-0.026000977
12	0x3ceb	0.028686523
13	0x3c11	0.008850098
14	0xbbd2	-0.0064086914
15	0xbcdb	-0.026733398
16	0x3c67	0.014099121
17	0xbb40	-0.0029296875
18	0xbc24	-0.010009766
19	0x3b35	0.0027618408
20	0xbca4	-0.020019531
21	0xbbbf	-0.0058288574
22	0xbc53	-0.012878418
23	0x3c77	0.015075684
24	0x3b89	0.004180908
25	0xbcd3	-0.025756836
26	0xbc02	-0.00793457
27	0xba05	-0.00050735474
28	0x3cc8	0.024414062
29	0x3cd9	0.026489258
30	0xbbb3	-0.0054626465
31	0xbba0	-0.0048828125
32	0x3d75	0.059814453
33	0xbbbb	-0.005706787
34	0x3bd6	0.0065307617
35	0x3c74	0.014892578
36	0xbce2	-0.02758789
37	0x3d0e	0.03466797
38	0x3cbb	0.022827148
39	0xbcba	-0.022705078
40	0x3c2d	0.010559082
41	0x3af2	0.0018463135
42	0x3c4f	0.012634277
43	0x3b99	0.0046691895
44	0x3cc5	0.024047852
45	0xbceb	-0.028686523
46	0xbc7e	-0.01550293
47	0x3c2b	0.010437012
48	0x3c11	0.008850098
49	0x3bb5	0.0055236816
50	0xbaaf	-0.001335144
51	0xbbb6	-0.005554199
52	0xbbe5	-0.0069885254
53	0x3bba	0.0056762695
54	0xbbd4	-0.0064697266
55	0x3c7e	0.01550293
56	0x3ca4	0.020019531
57	0x3bf7	0.007537842
58	0x3b04	0.0020141602
59	0xbc8f	-0.017456055
60	0x3cbf	0.02331543
61	0x3c63	0.0138549805
62	0x3c65	0.013977051
63	0x3c6d	0.014465332
64	0x3c3f	0.011657715
65	0x3b43	0.0029754639
66	0x3ba7	0.0050964355
67	0x3d4b	0.049560547
68	0xbc9e	-0.01928711
69	0xbcca	-0.024658203
70	0xbbe7	-0.0070495605
71	0x3aaf	0.001335144
72	0xbb70	-0.0036621094
73	0x3ccb	0.024780273
74	0xb8c3	-9.2983246e-05
75	0xbcad	-0.021118164
76	0x3b5c	0.0033569336
77	0x3cda	0.026611328
78	0x39ba	0.00035476685
79	0xbc04	-0.008056641
80	0x3c82	0.01586914
81	0x3a80	0.0009765625
82	0xb9c4	-0.00037384033
83	0xbb86	-0.0040893555
84	0x3c21	0.00982666
85	0x3ccc	0.024902344
86	0x3c3d	0.0115356445
87	0xbbe9	-0.0071105957
88	0x3cb6	0.022216797
89	0xbbcb	-0.0061950684
90	0x3c77	0.015075684
91	0x3cf2	0.029541016
92	0xba21	-0.00061416626
93	0xbd2a	-0.041503906
94	0xbcce	-0.025146484
95	0x3cab	0.020874023
96	0xbcab	-0.020874023
97	0x3c1f	0.00970459
98	0x3c53	0.012878418
99	0xbbf7	-0.007537842
100	0xbd1c	-0.038085938
101	0x3a80	0.0009765625
102	0xbc02	-0.00793457
103	0x3c71	0.014709473
104	0x3b3e	0.00289917
105	0xbbdd	-0.0067443848
106	0x3c57	0.013122559
107	0x3c8d	0.017211914
108	0x3b58	0.0032958984
109	0x3b40	0.0029296875
110	0xbca9	-0.020629883
111	0xbb47	-0.003036499
112	0xbc9e	-0.01928711
113	0x3cfa	0.030517578
114	0xbc09	-0.008361816
115	0x3c05	0.008117676
116	0xbcc9	-0.024536133
117	0x3d00	0.03125
118	0xbc86	-0.016357422
119	0x3c2a	0.010375977
120	0x3b32	0.0027160645
121	0xbb88	-0.0041503906
122	0x3c61	0.01373291
123	0xbc84	-0.016113281
124	0xbab8	-0.0014038086
125	0x3c3f	0.011657715
126	0xbc33	-0.010925293
127	0x3cac	0.020996094
128	0xbc24	-0.010009766
129	0xbc37	-0.011169434
130	0x3ce1	0.02746582
131	0x3c5e	0.013549805
132	0x3c89	0.016723633
133	0x3b80	0.00390625
134	0xbcec	-0.028808594
135	0x3ca9	0.020629883
136	0x3d0d	0.034423828
137	0xba02	-0.00049591064
138	0xbce4	-0.027832031
139	0x3cc7	0.024291992
140	0x3b73	0.0037078857
141	0xbca0	-0.01953125
142	0x3cf8	0.030273438
143	0x3ccb	0.024780273
144	0x3c39	0.011291504
145	0x3cbd	0.023071289
146	0x3c48	0.012207031
147	0x3ba9	0.0051574707
148	0x3c5d	0.0134887695
149	0xbc0d	-0.008605957
150	0xbbf7	-0.007537842
151	0xbbf4	-0.007446289
152	0x3d75	0.059814453
153	0xbc90	-0.017578125
154	0x3cbc	0.022949219
155	0x3cb8	0.022460938
156	0x3c1d	0.0095825195
157	0xbbfb	-0.007659912
158	0xbcd1	-0.025512695
159	0x3a0d	0.0005378723
160	0xbc25	-0.010070801
161	0xbcc5	-0.024047852
162	0xbbd6	-0.0065307617
163	0x3c7d	0.0154418945
164	0x3b6b	0.0035858154
165	0xbbf4	-0.007446289
166	0xbbe1	-0.006866455
167	0xbbcc	-0.006225586
168	0xbccc	-0.024902344
169	0x3c3c	0.011474609
170	0xbc43	-0.0119018555
171	0x3c10	0.0087890625
172	0xb9bf	-0.0003643036
173	0x3b28	0.0025634766
174	0x3cc2	0.02368164
175	0xbb4a	-0.0030822754
176	0xbba5	-0.0050354004
177	0xbcb2	-0.021728516
178	0x3c8a	0.016845703
179	0x3c1a	0.009399414
180	0x3b15	0.0022735596
181	0xbbfe	-0.007751465
182	0x3b58	0.0032958984
183	0xbcef	-0.029174805
184	0x3bd6	0.0065307617
185	0xbcae	-0.021240234
186	0x3c10	0.0087890625
187	0xbc20	-0.009765625
188	0x3c60	0.013671875
189	0x3bdf	0.00680542
190	0x3b8d	0.0043029785
191	0x3b55	0.003250122
192	0x3d01	0.03149414
193	0xbc55	-0.013000488
194	0xbc03	-0.0079956055
195	0xbcd9	-0.026489258
196	0xbc25	-0.010070801
197	0x3b66	0.0035095215
198	0xbcf6	-0.030029297
199	0x3c6c	0.014404297
200	0x3b25	0.0025177002
201	0x3bbf	0.0058288574
202	0xbbd5	-0.006500244
203	0xbb39	-0.002822876
204	0x3d21	0.03930664
205	0xbcca	-0.024658203
206	0x3b8b	0.0042419434
207	0x3bed	0.007232666
208	0x3bfb	0.007659912
209	0x3b86	0.0040893555
210	0x3c17	0.009216309
211	0x3caa	0.020751953
212	0x3b2e	0.0026550293
213	0x3b84	0.0040283203
214	0x3c4e	0.012573242
215	0xbc0e	-0.008666992
216	0xba3f	-0.0007286072
217	0x3cbb	0.022827148
218	0xbb30	-0.0026855469
219	0xbc7a	-0.015258789
220	0xbc07	-0.008239746
221	0xbc82	-0.01586914
222	0x3cbf	0.02331543
223	0x3cd7	0.026245117
224	0x3b6f	0.0036468506
225	0xbc10	-0.0087890625
226	0x3d08	0.033203125
227	0x3a95	0.0011367798
228	0xbcc2	-0.02368164
229	0x3b35	0.0027618408
230	0xbcb1	-0.021606445
231	0x3cc9	0.024536133
232	0xbbf9	-0.007598877
233	0xbaa2	-0.0012359619
234	0x3b8a	0.004211426
235	0x3bb1	0.0054016113
236	0xbc26	-0.010131836
237	0x3c1d	0.0095825195
238	0x3be7	0.0070495605
239	0x3b31	0.0027008057
240	0x3c2a	0.010375977
241	0xbcaa	-0.020751953
242	0x3bb3	0.0054626465
243	0x3c96	0.018310547
244	0x3ab3	0.0013656616
245	0xbcf1	-0.029418945
246	0xba5f	-0.0008506775
247	0xbcb6	-0.022216797
248	0x3c8d	0.017211914
249	0x3cbd	0.023071289
250	0x3ce0	0.02734375
251	0xbb7a	-0.0038146973
252	0x3ca7	0.020385742
253	0xbcab	-0.020874023
254	0xbc94	-0.018066406
255	0xbc07	-0.008239746
