data/probes_binary/layer_11/probe_creating.pth (torch, 6978 bytes, 1 tensors)

linear.weight bf16 [1, 2560]
00000000: 0e3c d8bc f73c 7fbb f43c 2c3c 96bc 8b3b
00000010: 5a3c 073a 853b eb3a 24bb 24bb 2abc 93bc
00000020: 87bc f63b 29bc 60b9 adbb 243d 19bc 6ebc
00000030: cc3a f13b 93bb af3a 073d 303b 8c3c c3bb
00000040: 98bb e93c 43bc 28ba 9db9 bb3c 873c 34bc
00000050: e5bb e2bb df3c 16bb b73c 243c 87ba 67bc
00000060: 473a a1bc 033c 453c 0f3c 85bc 4d3c 77bc
00000070: 573c bab9 e3ba 54bc 453c 4a3b 103b 28bc
00000080: 4a3d 513c a5bc e2bb 92bb 1c3c 493c 7abb
00000090: 03bc 933c 0b3a 793c ad3b 9e3b 2cbd 253c
000000a0: 8c3b 033b 8a3a 0fbb b13b 16bd ebb7 923c
000000b0: 6dbc 313d 993a b13c 05bd a23c c33a 6ebc
000000c0: bd3c debb 02bd d13c 113c e03c 15bb 20bc
000000d0: 17bc 4e3c 86bc fabc a73b 70bc 1cbc d2bc
000000e0: c9bc 9c3b 00bc e6bb 58bb a53c 2bbc 803c
000000f0: 3b3a 04bc 22bd 513a d33c 51bc 14b8 513d
00000100: e13c d33c 263b 0e3c 8837 25bd 6f3d 6e3c
00000110: bebb 64bb 5a3d 413b d6bb a2bb cd3c 0bbc
00000120: 4a3d 02bb 3cbb 8dbb 943b d0ba fd3b 173c
00000130: bb3c d2bb 843b 9eba 9a3c 12ba 6c3b f53c
00000140: 703c 3e3c 703b 7e3c c43c c63b 4b3a 3e3c
00000150: 61bc afb9 10bc 8ebc beba 30bb 113c 5c3c
00000160: 653a d5bc cc3c f939 4a3b 153b bdb8 d43a
00000170: cf3c c6bb 3abb 5bbb bc3b 653d 043c eabc
00000180: dfbc b53b 863a daba 1f3c 81bc cf3b 353c
00000190: 923b 313d a7bb 263d 5c3c cabc 01ba 0abc
000001a0: 1c39 4839 bb3b 08bb 78bc 3d3c 003d b5b9
000001b0: d3bc 0ebc 1e3c 95b9 793b 38ba cf3b 18bc
000001c0: 98bb 99bc 9d3b 073c 4dbc 1e3c 1bbb 963c
000001d0: 533c fbbc f33a bf3a 8e3c a53b 4cbc 50bb
000001e0: 24bc e63c cfba c73b f1bb 78bc 223c 1b3c
000001f0: 353d 3f3a b9bb e43c 51bb 063d 3f3b 553b
0.008666992 -0.026367188 0.030151367 -0.0038909912 0.029785156 0.010498047 -0.018310547 0.0042419434
0.013305664 0.00051498413 0.004058838 0.0017929077 -0.0025024414 -0.0025024414 -0.010375977 -0.017944336
-0.016479492 0.007507324 -0.010314941 -0.00021362305 -0.005279541 0.040039062 -0.009338379 -0.014526367
0.0015563965 0.0073547363 -0.004486084 0.001335144 0.032958984 0.0026855469 0.017089844 -0.0059509277
-0.004638672 0.028442383 -0.0119018555 -0.00064086914 -0.00029945374 0.022827148 0.016479492 -0.010986328
-0.0069885254 -0.0068969727 0.02722168 -0.0022888184 0.022338867 0.010009766 -0.0010299683 -0.014099121
0.00075912476 -0.01965332 0.0079956055 0.012023926 0.008728027 -0.016235352 0.012512207 -0.015075684
0.013122559 -0.00035476685 -0.0017318726 -0.012939453 0.012023926 0.0030822754 0.0021972656 -0.010253906
0.049316406 0.012756348 -0.020141602 -0.0068969727 -0.0044555664 0.009521484 0.012268066 -0.0038146973
-0.0079956055 0.017944336 0.0005302429 0.015197754 0.005279541 0.0048217773 -0.041992188 0.010070801
0.004272461 0.0019989014 0.0010528564 -0.0021820068 0.0054016113 -0.036621094 -2.8014183e-05 0.017822266
-0.014465332 0.04321289 0.0011672974 0.021606445 -0.032470703 0.01977539 0.0014877319 -0.014526367
0.023071289 -0.0067749023 -0.03173828 0.025512695 0.008850098 0.02734375 -0.0022735596 -0.009765625
-0.009216309 0.012573242 -0.016357422 -0.030517578 0.0050964355 -0.0146484375 -0.009521484 -0.025634766
-0.024536133 0.004760742 -0.0078125 -0.007019043 -0.0032958984 0.020141602 -0.010437012 0.015625
0.0007133484 -0.008056641 -0.03955078 0.0007972717 0.025756836 -0.012756348 -3.528595e-05 0.05102539
0.02746582 0.025756836 0.002532959 0.008666992 1.6212463e-05 -0.040283203 0.05834961 0.014526367
-0.00579834 -0.003479004 0.053222656 0.0029449463 -0.0065307617 -0.0049438477 0.025024414 -0.008483887
0.049316406 -0.0019836426 -0.0028686523 -0.0043029785 0.0045166016 -0.0015869141 0.0077209473 0.009216309
0.022827148 -0.0064086914 0.0040283203 -0.0012054443 0.018798828 -0.0005569458 0.0036010742 0.029907227
0.0146484375 0.01159668 0.0036621094 0.01550293 0.023925781 0.0060424805 0.00077438354 0.01159668
-0.01373291 -0.000333786 -0.0087890625 -0.017333984 -0.001449585 -0.0026855469 0.008850098 0.013427734
0.0008735657 -0.026000977 0.024902344 0.0004749298 0.0030822754 0.0022735596 -9.012222e-05 0.0016174316
0.025268555 -0.0060424805 -0.0028381348 -0.0033416748 0.0057373047 0.055908203 0.008056641 -0.028564453
-0.02722168 0.0055236816 0.0010223389 -0.001663208 0.00970459 -0.01574707 0.0063171387 0.011047363
0.0044555664 0.04321289 -0.0050964355 0.040527344 0.013427734 -0.024658203 -0.00049209595 -0.008422852
0.0001487732 0.00019073486 0.005706787 -0.0020751953 -0.015136719 0.0115356445 0.03125 -0.0003452301
-0.025756836 -0.008666992 0.009643555 -0.00028419495 0.0037994385 -0.0007019043 0.0063171387 -0.009277344
-0.004638672 -0.018676758 0.0047912598 0.008239746 -0.012512207 0.009643555 -0.0023651123 0.018310547
0.012878418 -0.030639648 0.0018539429 0.0014572144 0.017333984 0.0050354004 -0.012451172 -0.0031738281
-0.010009766 0.028076172 -0.0015792847 0.006072998 -0.0073547363 -0.015136719 0.009887695 0.009460449
0.044189453 0.0007286072 -0.005645752 0.027832031 -0.003189087 0.032714844 0.0029144287 0.003250122
