data/probes_binary/layer_12/probe_metacognitive_monitoring.pth (torch, 7202 bytes, 1 tensors)

linear.weight bf16 [1, 2560]
0.015075684 0.0021972656 -0.002532959 -0.0067443848 -0.019897461 0.0004711151 -0.00970459 -0.012023926
0.0045776367 0.013671875 0.003189087 -0.0024108887 0.017456055 0.008361816 -0.0049438477 -0.018676758
0.00091552734 -0.05029297 -0.005279541 -0.00014209747 0.00044822693 -0.007873535 -0.0079956055 -0.0036468506
-0.014892578 -0.025024414 -0.003540039 0.017700195 -0.00092315674 0.014221191 -0.03125 -0.012084961
0.0033111572 0.05078125 -0.010559082 0.018554688 -0.006286621 -0.01940918 0.040039062 0.009277344
0.010070801 0.001449585 -0.0034942627 0.00023078918 -0.03491211 -0.03515625 -0.003036499 0.0068359375
-0.006500244 -0.00051116943 0.018676758 -0.009216309 0.015136719 -0.017578125 -0.006439209 -0.031982422
-0.0014877319 -0.013916016 -9.393692e-05 -0.0061035156 0.013977051 -0.009277344 0.0064697266 0.024780273
0.0034179688 -0.00390625 -0.033203125 -0.0050354004 0.0006942749 -0.015380859 0.0079956055 0.017822266
0.019165039 -0.018676758 0.0026397705 0.01965332 -0.0020751953 -0.01550293 0.0023345947 0.016479492
-0.011779785 0.0002040863 -0.018188477 -0.0107421875 0.0009841919 0.00491333 -0.002456665 -0.016357422
0.038330078 -0.0073242188 -0.0035095215 -0.00793457 0.02758789 0.016235352 0.0027923584 -0.0038146973
0.014404297 -0.0067443848 -0.005340576 0.008239746 -0.028198242 -0.003540039 -0.030273438 -0.027709961
-0.028442383 -0.0075683594 -0.027954102 0.018432617 0.0021972656 0.025756836 -0.013549805 -0.024169922
0.010803223 0.020019531 -0.006958008 -0.00028038025 0.0010604858 -0.03112793 0.009643555 -0.0013961792
0.013366699 0.024780273 -0.0032043457 -0.014770508 0.01965332 0.028076172 -0.029785156 0.010498047
0.033447266 -0.03112793 0.011657715 -0.008422852 -0.049072266 0.0011901855 0.036621094 -0.008605957
-0.0068969727 -0.015258789 0.00390625 -0.030029297 -0.01586914 -0.0027313232 0.028930664 -0.008850098
0.022705078 -0.014221191 -0.011779785 0.008056641 0.008361816 0.0028076172 -0.010803223 -0.010131836
0.0138549805 0.00592041 0.0015792847 -0.0068359375 -0.0077819824 0.00793457 0.00491333 -0.0018615723
-0.015563965 -0.025756836 -0.018432617 1.7881393e-05 0.009094238 -0.016967773 -0.015625 0.020141602
0.012084961 -0.005493164 -0.016845703 0.028808594 0.0031433105 -0.0017623901 -0.040771484 -0.025390625
0.014221191 -0.0011062622 -0.017211914 -0.0060424805 -0.00970459 -0.0027923584 0.012329102 -0.000333786
-0.021606445 0.028198242 -0.009643555 0.0027160645 0.00010728836 -0.041748047 0.002822876 0.0119018555
0.013183594 -0.016357422 -0.0014038086 0.0022888184 -0.0025482178 -0.00018024445 0.014465332 0.0016326904
0.0044555664 -0.007507324 5.054474e-05 -0.035888672 0.0029144287 -0.02331543 -0.0061950684 -0.033935547
0.0065307617 -0.0061950684 0.0057678223 0.014831543 0.0030975342 0.014526367 0.043945312 0.0036773682
0.029907227 -0.010681152 -0.001411438 -0.04736328 0.03100586 0.0119018555 0.009521484 -0.0066833496
-0.0018386841 -0.0025024414 -0.018066406 -0.002960205 0.008361816 -0.035888672 -0.017211914 -0.006286621
-0.0099487305 0.020874023 0.0013885498 -0.00043296814 -0.0022583008 -0.0016708374 0.0070495605 -0.0062561035
0.040527344 -0.0070495605 -0.009155273 0.011108398 -0.015014648 0.00010204315 0.03125 -0.00970459
-0.0056152344 -0.0046691895 -0.004119873 -0.00027275085 -0.0005187988 0.02368164 -0.0028686523 -0.0028839111
00000000: 773c 103b 26bb ddbb a3bc f739 1fbc 45bc
00000010: 963b 603c 513b 1ebb 8f3c 093c a2bb 99bc
00000020: 703a 4ebd adbb 15b9 eb39 01bc 03bc 6fbb
00000030: 74bc cdbc 68bb 913c 72ba 693c 00bd 46bc
00000040: 593b 503d 2dbc 983c cebb 9fbc 243d 183c
00000050: 253c be3a 65bb 7239 0fbd 10bd 47bb e03b
00000060: d5bb 06ba 993c 17bc 783c 90bc d3bb 03bd
00000070: c3ba 64bc c5b8 c8bb 653c 18bc d43b cb3c
00000080: 603b 80bb 08bd a5bb 363a 7cbc 033c 923c
00000090: 9d3c 99bc 2d3b a13c 08bb 7ebc 193b 873c
000000a0: 41bc 5639 95bc 30bc 813a a13b 21bb 86bc
000000b0: 1d3d f0bb 66bb 02bc e23c 853c 373b 7abb
000000c0: 6c3c ddbb afbb 073c e7bc 68bb f8bc e3bc
000000d0: e9bc f8bb e5bc 973c 103b d33c 5ebc c6bc
000000e0: 313c a43c e4bb 93b9 8b3a ffbc 1e3c b7ba
000000f0: 5b3c cb3c 52bb 72bc a13c e63c f4bc 2c3c
00000100: 093d ffbc 3f3c 0abc 49bd 9c3a 163d 0dbc
00000110: e2bb 7abc 803b f6bc 82bc 33bb ed3c 11bc
00000120: ba3c 69bc 41bc 043c 093c 383b 31bc 26bc
00000130: 633c c23b cf3a e0bb ffbb 023c a13b f4ba
00000140: 7fbc d3bc 97bc 9637 153c 8bbc 80bc a53c
00000150: 463c b4bb 8abc ec3c 4e3b e7ba 27bd d0bc
00000160: 693c 91ba 8dbc c6bb 1fbc 37bb 4a3c afb9
00000170: b1bc e73c 1ebc 323b e138 2bbd 393b 433c
00000180: 583c 86bc b8ba 163b 27bb 3db9 6d3c d63a
00000190: 923b f6bb 5438 13bd 3f3b bfbc cbbb 0bbd
000001a0: d63b cbbb bd3b 733c 4b3b 6e3c 343d 713b
000001b0: f53c 2fbc b9ba 42bd fe3c 433c 1c3c dbbb
000001c0: f1ba 24bb 94bc 42bb 093c 13bd 8dbc cebb
000001d0: 23bc ab3c b63a e3b9 14bb dbba e73b cdbb
000001e0: 263d e7bb 16bc 363c 76bc d638 003d 1fbc
000001f0: b8bb 99bb 87bb 8fb9 08ba c23c 3cbb 3dbb
