data/probes_binary/layer_16/probe_reconsidering.pth (torch, 7008 bytes, 1 tensors)

linear.weight bf16 [1, 2560]
000000 cc 3b 2b bb 01 3c ce bb 31 3b b2 3b 1d 3d 20 3d
       0.006225586 -0.002609253 0.007873535 -0.006286621 0.0027008057 0.005432129 0.038330078 0.0390625
000010 5b bc a4 3c b0 bb cf 3a fc bc 79 bb 39 bc 42 bb
       -0.013366699 0.020019531 -0.0053710938 0.0015792847 -0.030761719 -0.0037994385 -0.011291504 -0.002960205
000020 6c bb 34 3c f7 3a 48 ba 2d 3c 9d bc b8 3b 5a 3c
       -0.0036010742 0.010986328 0.0018844604 -0.00076293945 0.010559082 -0.019165039 0.0056152344 0.013305664
000030 88 3b e4 bb ca bb 81 3b ae bb dc 3b 81 3b b9 3c
       0.0041503906 -0.006958008 -0.006164551 0.0039367676 -0.0053100586 0.006713867 0.0039367676 0.022583008
000040 6a bb 1e 3c d8 3b 93 bb 93 3c c0 ba 40 3c 83 bc
       -0.0035705566 0.009643555 0.006591797 -0.004486084 0.017944336 -0.0014648438 0.01171875 -0.015991211
000050 09 3d 6f bd 22 3b 14 bc 80 bc 4f bc 07 bd b9 3b
       0.033447266 -0.05834961 0.0024719238 -0.009033203 -0.015625 -0.012634277 -0.032958984 0.005645752
000060 45 3b c5 bc c1 bb aa 3b 2d 3c 48 3c 48 bd 9d 3b
       0.0030059814 -0.024047852 -0.0058898926 0.0051879883 0.010559082 0.012207031 -0.048828125 0.0047912598
000070 06 3c 45 3b 99 bb 52 3c 2c bc cf 3c 86 bb 94 3b
       0.008178711 0.0030059814 -0.0046691895 0.012817383 -0.010498047 0.025268555 -0.0040893555 0.0045166016
000080 2b bd 94 bb da 3b 09 bd b7 bb 10 3c bf 3a b9 3b
       -0.041748047 -0.0045166016 0.006652832 -0.033447266 -0.005584717 0.0087890625 0.0014572144 0.005645752
000090 e1 bb 35 bd 1c bb 94 bc b9 bb 2f 3d 83 bb cd bb
       -0.006866455 -0.044189453 -0.002380371 -0.018066406 -0.005645752 0.04272461 -0.0039978027 -0.0062561035
0000a0 30 3c f8 ba 03 3c 8d ba cb ba 4f bc d5 bb 95 ba
       0.0107421875 -0.0018920898 0.0079956055 -0.0010757446 -0.0015487671 -0.012634277 -0.006500244 -0.0011367798
0000b0 fb 3c 99 b8 42 3b f8 ba 45 3b 39 3b 5d bb 3b 3c
       0.030639648 -7.2956085e-05 0.002960205 -0.0018920898 0.0030059814 0.002822876 -0.0033721924 0.011413574
0000c0 57 3c 8d 3b 23 bb 7d bb 0d 3a 68 bc ec bc 8e 3c
       0.013122559 0.0043029785 -0.0024871826 -0.0038604736 0.0005378723 -0.014160156 -0.028808594 0.017333984
0000d0 c3 3c 80 3c bb 3c ae 3c 9e 3c a3 3c d1 bc a1 bc
       0.023803711 0.015625 0.022827148 0.021240234 0.01928711 0.019897461 -0.025512695 -0.01965332
0000e0 b4 bb 4c 39 33 3c 73 ba d5 bb 05 bd de bb 0d bc
       -0.005493164 0.00019454956 0.010925293 -0.00092697144 -0.006500244 -0.032470703 -0.0067749023 -0.008605957
0000f0 a7 bb ec ba f1 3c 45 bc fc bc 5d 3a 54 bc 15 bc
       -0.0050964355 -0.0018005371 0.029418945 -0.012023926 -0.030761719 0.0008430481 -0.012939453 -0.009094238
000100 4f 3c da 3c 74 bc 35 bc 7f 3a 28 bc 94 bb 9c ba
       0.012634277 0.026611328 -0.014892578 -0.011047363 0.0009727478 -0.010253906 -0.0045166016 -0.0011901855
000110 bf bc 03 3d 72 3b e1 b8 66 bc cb bc 08 3c 03 3d
       -0.02331543 0.031982422 0.003692627 -0.00010728836 -0.014038086 -0.024780273 0.008300781 0.031982422
000120 36 3b ed 3b d2 ba 82 3a 84 ba ef 3c 2f bb be 3a
       0.0027770996 0.007232666 -0.0016021729 0.0009918213 -0.0010070801 0.029174805 -0.002670288 0.001449585
000130 ac ba 27 bd 02 bc f3 3a 6b bb b6 bc a0 bb 75 3c
       -0.0013122559 -0.040771484 -0.00793457 0.0018539429 -0.0035858154 -0.022216797 -0.0048828125 0.014953613
000140 5f bc e0 b9 ee 3b f4 bc e8 3b 30 3b 9d bb 78 3b
       -0.01361084 -0.0004272461 0.0072631836 -0.029785156 0.007080078 0.0026855469 -0.0047912598 0.0037841797
000150 3f bc 54 3b 94 bb e8 ba 00 3c c2 bb 35 bb 2e bb
       -0.011657715 0.0032348633 -0.0045166016 -0.0017700195 0.0078125 -0.00592041 -0.0027618408 -0.0026550293
000160 0f 3c 24 bd ff bc 95 3b f9 bc 84 bc ee 3c bd bb
       0.008728027 -0.040039062 -0.03112793 0.004547119 -0.030395508 -0.016113281 0.029052734 -0.0057678223
000170 69 bb 43 3c d9 3b bd 3b df 3a 2c bd 59 3c 7e bc
       -0.0035552979 0.0119018555 0.0066223145 0.0057678223 0.001701355 -0.041992188 0.013244629 -0.01550293
000180 b7 39 81 bb 3e 3b f8 3b 15 bc 2a 3d 2f 3c 06 bd
       0.0003490448 -0.0039367676 0.00289917 0.0075683594 -0.009094238 0.041503906 0.010681152 -0.032714844
000190 e9 3b 86 3b 24 3d 58 bb 9f bb 0f bc 89 bc 64 bc
       0.0071105957 0.0040893555 0.040039062 -0.0032958984 -0.004852295 -0.008728027 -0.016723633 -0.013916016
0001a0 90 bc b2 3b 0d 3a 68 3c 9a bc 8d 3c 92 bc 87 3b
       -0.017578125 0.005432129 0.0005378723 0.014160156 -0.018798828 0.017211914 -0.017822266 0.004119873
0001b0 7f 3c d5 3b 99 3c e3 bc 7f bb ab bb b1 3c db bb
       0.015563965 0.006500244 0.018676758 -0.027709961 -0.0038909912 -0.005218506 0.021606445 -0.0066833496
0001c0 a6 bb 9e bb 89 ba c4 bb 53 3b 86 3c 5e 3c 01 3c
       -0.005065918 -0.0048217773 -0.001045227 -0.0059814453 0.0032196045 0.016357422 0.013549805 0.007873535
0001d0 95 3b c8 3b a2 bb de ba 3c 3c 89 3b e9 bc 05 3c
       0.004547119 0.0061035156 -0.0049438477 -0.0016937256 0.011474609 0.004180908 -0.028442383 0.008117676
0001e0 b4 3c 0b 3b 2d 3c 5d bc 09 3c b1 3b de bb 6b 3c
       0.021972656 0.0021209717 0.010559082 -0.0134887695 0.008361816 0.0054016113 -0.0067749023 0.014343262
0001f0 b0 bb 49 bc 5f 3b 09 bb d0 3c 90 bb 18 3c dc bc
       -0.0053710938 -0.012268066 0.00340271 -0.002090454 0.025390625 -0.0043945312 0.009277344 -0.026855469
