data/probes_binary/layer_16/probe_divergent_thinking.pth (torch, 7166 bytes, 1 tensors)

linear.weight bf16 [1, 2560]
0.0036773682 5.531311e-05 0.0068359375 -0.022705078 0.010070801 0.0033569336 -0.004760742 -0.013305664
-0.00982666 -0.0032348633 0.0030822754 0.008911133 0.017944336 -0.0023040771 0.028564453 -0.001625061
0.024047852 0.01574707 -0.029418945 1.680851e-05 0.0070495605 0.012939453 -0.0076904297 0.015991211
-0.012390137 -0.0019378662 0.008666992 -0.0042419434 0.008605957 -0.034423828 -0.026733398 0.053955078
0.0119018555 -0.018310547 -0.023803711 0.00044441223 -0.026489258 -0.022827148 0.0021972656 -0.03125
0.01965332 -0.032714844 0.016235352 -0.00042152405 0.010925293 -0.030029297 -0.03125 0.007019043
0.00011777878 0.022338867 0.0055236816 -0.0020141602 0.026367188 -0.022094727 -0.018066406 0.0042419434
-0.033203125 -0.010314941 0.0038604736 -0.004272461 0.005432129 -0.026245117 0.017456055 0.010864258
-0.010253906 0.0014877319 -0.028076172 -0.030761719 0.0023651123 -0.0065612793 0.0051879883 -0.013244629
-0.032958984 -0.057128906 0.002380371 0.0016021729 0.007873535 -0.06738281 -0.013366699 0.0015792847
-0.0034484863 -0.00012111664 -0.0002861023 -0.0146484375 0.008361816 0.0018310547 0.014282227 -0.0040283203
-0.012878418 0.0017623901 -0.0010757446 -0.0036010742 0.0058288574 0.0029144287 0.0029907227 -0.012512207
-0.003692627 -0.0038604736 -0.0049743652 0.002105713 -0.012756348 -0.012268066 -0.03515625 -0.002609253
-0.025878906 -0.036132812 0.01184082 0.010070801 -0.009765625 -0.02331543 -0.033447266 -0.012756348
-0.020141602 -0.004425049 0.026733398 0.0011444092 -0.010803223 -0.004547119 0.017333984 -0.0028839111
0.010864258 -0.0033721924 0.00076675415 -0.011108398 -0.001083374 -0.0107421875 -0.0066223145 0.015991211
0.0064697266 0.020507812 0.0138549805 0.0070495605 -0.008728027 -0.0069274902 0.03125 0.0018386841
0.016235352 -0.044433594 0.004760742 0.0021209717 0.004058838 0.0045776367 0.021728516 0.0074768066
-0.02722168 0.0051879883 0.021362305 0.0029754639 0.030151367 0.014953613 -0.004486084 -0.009460449
0.013916016 -0.02331543 -0.0015716553 -0.014160156 -0.032958984 -0.011169434 0.0087890625 0.005126953
-0.028564453 0.0053100586 0.03125 0.022216797 -0.0047302246 0.033935547 -0.0045166016 0.012390137
-0.012512207 -0.011474609 -0.0095825195 -0.0052490234 0.002319336 0.009155273 -0.041015625 -0.0037078857
-0.025756836 -0.0078125 -0.03125 -0.013000488 0.0054016113 0.010498047 0.02319336 -0.017700195
-0.0023345947 0.012084961 -0.004058838 -0.010864258 0.0115356445 -0.037109375 0.012145996 0.009338379
-0.00793457 0.006439209 0.0022277832 -0.009460449 0.009765625 0.0107421875 -0.0079956055 -0.043701172
-0.006713867 0.0065307617 -0.014343262 0.007751465 -0.0043029785 -0.00680542 0.0234375 -0.0023956299
-0.0073547363 0.00074005127 -8.9645386e-05 -0.0056152344 -0.022338867 -0.008117676 -0.024780273 -0.00340271
-0.029907227 -0.007537842 0.0075683594 0.0024414062 -0.0035858154 -0.007659912 0.0025177002 -0.0061950684
-0.007019043 0.0018844604 -0.014831543 0.0023956299 -0.010070801 0.021972656 -0.021850586 0.033691406
-0.007446289 0.0007362366 -0.025146484 0.0063476562 -0.009033203 -0.020874023 -0.010253906 0.0026855469
0.012939453 -0.015075684 -0.003540039 -0.006591797 -0.023925781 0.004211426 -0.009765625 0.013793945
0.03149414 0.02709961 0.020263672 0.021606445 -0.0067749023 -0.01940918 0.004272461 -0.018432617
00000000: 713b 6838 e03b babc 253c 5c3b 9cbb 5abc
00000010: 21bc 54bb 4a3b 123c 933c 17bb ea3c d5ba
00000020: c53c 813c f1bc 8d37 e73b 543c fcbb 833c
00000030: 4bbc feba 0e3c 8bbb 0d3c 0dbd dbbc 5d3d
00000040: 433c 96bc c3bc e939 d9bc bbbc 103b 00bd
00000050: a13c 06bd 853c ddb9 333c f6bc 00bd e63b
00000060: f738 b73c b53b 04bb d83c b5bc 94bc 8b3b
00000070: 08bd 29bc 7d3b 8cbb b23b d7bc 8f3c 323c
00000080: 28bc c33a e6bc fcbc 1b3b d7bb aa3b 59bc
00000090: 07bd 6abd 1c3b d23a 013c 8abd 5bbc cf3a
000000a0: 62bb feb8 96b9 70bc 093c f03a 6a3c 84bb
000000b0: 53bc e73a 8dba 6cbb bf3b 3f3b 443b 4dbc
000000c0: 72bb 7dbb a3bb 0a3b 51bc 49bc 10bd 2bbb
000000d0: d4bc 14bd 423c 253c 20bc bfbc 09bd 51bc
000000e0: a5bc 91bb db3c 963a 31bc 95bb 8e3c 3dbb
000000f0: 323c 5dbb 493a 36bc 8eba 30bc d9bb 833c
00000100: d43b a83c 633c e73b 0fbc e3bb 003d f13a
00000110: 853c 36bd 9c3b 0b3b 853b 963b b23c f53b
00000120: dfbc aa3b af3c 433b f73c 753c 93bb 1bbc
00000130: 643c bfbc ceba 68bc 07bd 37bc 103c a83b
00000140: eabc ae3b 003d b63c 9bbb 0b3d 94bb 4b3c
00000150: 4dbc 3cbc 1dbc acbb 183b 163c 28bd 73bb
00000160: d3bc 00bc 00bd 55bc b13b 2c3c be3c 91bc
00000170: 19bb 463c 85bb 32bc 3d3c 18bd 473c 193c
00000180: 02bc d33b 123b 1bbc 203c 303c 03bc 33bd
00000190: dcbb d63b 6bbc fe3b 8dbb dfbb c03c 1dbb
000001a0: f1bb 423a bcb8 b8bb b7bc 05bc cbbc 5fbb
000001b0: f5bc f7bb f83b 203b 6bbb fbbb 253b cbbb
000001c0: e6bb f73a 73bc 1d3b 25bc b43c b3bc 0a3d
000001d0: f4bb 413a cebc d03b 14bc abbc 28bc 303b
000001e0: 543c 77bc 68bb d8bb c4bc 8a3b 20bc 623c
000001f0: 013d de3c a63c b13c debb 9fbc 8c3b 97bc
