data/probes_binary/layer_27/probe_questioning.pth (torch, 6996 bytes, 1 tensors)

linear.weight bf16 [1, 2560]
00000000: 28bc ec3b 74bb 8b3b 753c 2b3c 393c c4bb
00000010: ef3c 76bc 7b3b 0bbc b9ba 40bc afbc 8aba
00000020: 7a3c 60b8 663c c03a 51bc 0c3b c53c 81ba
00000030: 58bb 8cbc 993b 1b3c 32bc c1bb 0d3d 093b
00000040: 85bc 82bc 28bc 323c 5a3c 953b 7ebb 6b3c
00000050: 0c3c a13c 823c 28bb 3bbc cb3c 64bc dcbb
00000060: 8ebc 4b3c 15bb af3b 87bc 083b 163c bd3c
00000070: 27bc 083c 3d3b a1bc 343c 153c be3b bf3b
00000080: 0ebc d13a ab3c 63bc 113c 883c 6c3c b03c
00000090: 353c 893c 183c a33c 12ba a23b 3a3c 6dbc
000000a0: b93b 40bc 87bb 3fbc 8bbc 76bb 7abc 1b3c
000000b0: 8c3c 83bb a9bc 0ab9 dfbb 8b3c b7bc 47bc
000000c0: cfbb 853c be3a 56bc a5bc 87bb 8e3c a33c
000000d0: 1abc 923c 36bc 4dbc fe3c 0cbd 6abb a23c
000000e0: 1c3b 30ba 5cbc 0dbc 88bc 6e3b 64ba 2a3c
000000f0: a6ba 0abc e13b 893c 69bc d63c d9ba c1bb
00000100: 80b9 8bbc 133c 2f3c 06bd 61bc e33a f03b
00000110: 113c 323b 353c 0c3c e93b 2a3c ef3b 323c
00000120: 643c e7bb b0bc 653c 83bc d5bb 00bd ea3c
00000130: b93b 1a3b e3bc aebc f73c 5fbc a7bc 52bc
00000140: 523c 0c3c d5bc 093c 7f3c 903c 813c c0bc
00000150: 2bbc f93b 963b 123c c1bb cbbc 9e3c 86bb
00000160: e03b db3c 06bc 18bb a83c 99bc 92bb b7bb
00000170: 6abc 3dbc 6c3c 6bbc 38bc 2d3c d0bc 7cbc
00000180: cebb e3bb 11ba 39bc 913b 0b3c a33b 483b
00000190: ba3b 3b3b 993b ceba b0bb 7c3c 83bc e7bc
000001a0: 3bbc 8a3b fcbb c6bb 30bc 0a3c 9abc 3a3c
000001b0: c6bb 1bbc bdbb 093c 12ba 2bbc 0dbc 933c
000001c0: c43b 6d3b 8d3c 97ba c53c 2ebb fc3a a43c
000001d0: 8c3c 473c 11bb 883b acbb d93a c23b d2bb
000001e0: b63c 40bc c63b 57bb 92bb 45bc dd3b 9d3c
000001f0: 673b 433a 953c 99ba efba d93c f23b 673b
-0.010253906 0.0072021484 -0.0037231445 0.0042419434 0.014953613 0.010437012 0.011291504 -0.0059814453
0.029174805 -0.015014648 0.003829956 -0.008483887 -0.001411438 -0.01171875 -0.021362305 -0.0010528564
0.015258789 -5.340576e-05 0.014038086 0.0014648438 -0.012756348 0.0021362305 0.024047852 -0.0009841919
-0.0032958984 -0.017089844 0.0046691895 0.009460449 -0.010864258 -0.0058898926 0.034423828 0.002090454
-0.016235352 -0.01586914 -0.010253906 0.010864258 0.013305664 0.004547119 -0.0038757324 0.014343262
0.008544922 0.01965332 0.01586914 -0.0025634766 -0.011413574 0.024780273 -0.013916016 -0.006713867
-0.017333984 0.012390137 -0.0022735596 0.005340576 -0.016479492 0.0020751953 0.009155273 0.023071289
-0.010192871 0.008300781 0.0028839111 -0.01965332 0.010986328 0.009094238 0.00579834 0.0058288574
-0.008666992 0.0015945435 0.020874023 -0.0138549805 0.008850098 0.016601562 0.014404297 0.021484375
0.011047363 0.016723633 0.009277344 0.019897461 -0.0005569458 0.0049438477 0.011352539 -0.014465332
0.005645752 -0.01171875 -0.004119873 -0.011657715 -0.016967773 -0.003753662 -0.015258789 0.009460449
0.017089844 -0.0039978027 -0.020629883 -0.00013160706 -0.00680542 0.016967773 -0.022338867 -0.012145996
-0.0063171387 0.016235352 0.001449585 -0.013061523 -0.020141602 -0.004119873 0.017333984 0.019897461
-0.009399414 0.017822266 -0.011108398 -0.012512207 0.03100586 -0.034179688 -0.0035705566 0.01977539
0.002380371 -0.0006713867 -0.013427734 -0.008605957 -0.016601562 0.0036315918 -0.000869751 0.010375977
-0.0012664795 -0.008422852 0.006866455 0.016723633 -0.014221191 0.026123047 -0.0016555786 -0.0058898926
-0.00024414062 -0.016967773 0.008972168 0.010681152 -0.032714844 -0.01373291 0.0017318726 0.0073242188
0.008850098 0.0027160645 0.011047363 0.008544922 0.0071105957 0.010375977 0.007293701 0.010864258
0.013916016 -0.0070495605 -0.021484375 0.013977051 -0.015991211 -0.006500244 -0.03125 0.028564453
0.005645752 0.0023498535 -0.027709961 -0.021240234 0.030151367 -0.01361084 -0.020385742 -0.012817383
0.012817383 0.008544922 -0.026000977 0.008361816 0.015563965 0.017578125 0.01574707 -0.0234375
-0.010437012 0.007598877 0.0045776367 0.008911133 -0.0058898926 -0.024780273 0.01928711 -0.0040893555
0.0068359375 0.026733398 -0.008178711 -0.002319336 0.020507812 -0.018676758 -0.0044555664 -0.005584717
-0.014282227 -0.0115356445 0.014404297 -0.014343262 -0.011230469 0.010559082 -0.025390625 -0.015380859
-0.006286621 -0.0069274902 -0.0005531311 -0.011291504 0.004425049 0.008483887 0.0049743652 0.0030517578
0.0056762695 0.0028533936 0.0046691895 -0.0015716553 -0.0053710938 0.015380859 -0.015991211 -0.028198242
-0.011413574 0.004211426 -0.0076904297 -0.0060424805 -0.0107421875 0.008422852 -0.018798828 0.011352539
-0.0060424805 -0.009460449 -0.0057678223 0.008361816 -0.0005569458 -0.010437012 -0.008605957 0.017944336
0.0059814453 0.003616333 0.017211914 -0.0011520386 0.024047852 -0.0026550293 0.0019226074 0.020019531
0.017089844 0.012145996 -0.0022125244 0.0041503906 -0.0052490234 0.0016555786 0.00592041 -0.0064086914
0.022216797 -0.01171875 0.0060424805 -0.0032806396 -0.0044555664 -0.012023926 0.0067443848 0.019165039
0.0035247803 0.00074386597 0.018188477 -0.0011672974 -0.0018234253 0.026489258 0.007385254 0.0035247803
