data/probes_binary/layer_22/probe_emotion_characterizing.pth (torch, 7190 bytes, 1 tensors)

linear.weight bf16 [1, 2560]
00000000: 2e3a 403c 493d 69bd 5b3b 08ba e0bb 873b
00000010: ac3b 9abb 1b3b 43bb 85bb bc3a 17bb acbb
00000020: 473b dd3c b6b9 9fb9 173c ddbb 81bc 58bc
00000030: f2bb 75bd 29bb 10bb 44bb 423d 8ebb ecbb
00000040: 153c c8bb de3b 863c 05bc 19bc 48bb bfbc
00000050: 623b d23a 3f3a afba 11bb 263c 893b 8c3a
00000060: 003b 503c 2f3a f03b 61bb ecbb 2a3d 223a
00000070: 593d 453b 13bb ec3b 3f3b aaba dcbb ee3a
00000080: c1bc 133b 0c3c bd3b 3d3c 42bc fcba 743c
00000090: f73c 013d 7a3a 913b 473b 69bb 903b c2bc
000000a0: d4bc f43a af3c fc3c ca3a a339 813c 52bc
000000b0: 92bb 02bd 853b 4c3c 0a3c 5dbc e639 143b
000000c0: 603b 973b f3bb 9d3b af3b 5ebc 61b9 4ebc
000000d0: be3a 31bc 693c d33a e3bb 863c 88bb fd3c
000000e0: 00bd e33c a0bb 0a3b 843b 27bb e83b 0b3b
000000f0: 0cbc 90bb e73c 9eb9 763b eebb 7b3a 5bba
00000100: fc3b f2bb 5fbb 023b ee3c 333c 353c 19bc
00000110: 5abc 05bd 44bb 9cba 4bbc ffbc 243c e9bb
00000120: efbc 5b3a 1f3b 9339 33bd 04bd 723b d13b
00000130: 553c 28bc 1ebb 01bc 51bb a43a 143c 413a
00000140: a13c 823a 843d ed3b a83b 903a 03bc e23c
00000150: 8abc 52bb 07bc 803a f4bb 173a c8bb be3b
00000160: f4bb 8a3b 0c3c 9038 653a c8bc a43a 6e3c
00000170: f33b c4bc 353b fa3a b23b 053c df3b 43ba
00000180: 0ebc 00bd a83a 213b 9c3b f7ba 98bb a93b
00000190: 103c 0fb8 76bb d73a 54bb 623b 04bd 02bd
000001a0: 7339 413b 8f3b 253b 6e3c 45bc a73b 783c
000001b0: 03bb 26bc 50bc 95b9 dfbb babb beba 07bc
000001c0: 1bba cc3b 063d 2fba 09bb 07bd 79ba 243b
000001d0: 233a 663c b13a 563c efbb edba 00bd 533b
000001e0: a93a 04bb efbb bebb 063c ffbc 9fb8 753b
000001f0: 08bc 023d 793b 003c 9ebb 423b 633b 77bb
0.0006637573 0.01171875 0.049072266 -0.056884766 0.0033416748 -0.0005187988 -0.0068359375 0.004119873
0.0052490234 -0.004699707 0.0023651123 -0.0029754639 -0.004058838 0.0014343262 -0.0023040771 -0.0052490234
0.003036499 0.026977539 -0.00034713745 -0.00030326843 0.009216309 -0.0067443848 -0.01574707 -0.013183594
-0.007385254 -0.059814453 -0.0025787354 -0.0021972656 -0.0029907227 0.04736328 -0.004333496 -0.0072021484
0.009094238 -0.0061035156 0.0067749023 0.016357422 -0.008117676 -0.009338379 -0.0030517578 -0.02331543
0.0034484863 0.0016021729 0.0007286072 -0.001335144 -0.0022125244 0.010131836 0.004180908 0.0010681152
0.001953125 0.0126953125 0.000667572 0.0073242188 -0.0034332275 -0.0072021484 0.041503906 0.00061798096
0.052978516 0.0030059814 -0.002243042 0.0072021484 0.0029144287 -0.0012969971 -0.006713867 0.0018157959
-0.02355957 0.002243042 0.008544922 0.0057678223 0.0115356445 -0.01184082 -0.0019226074 0.014892578
0.030151367 0.03149414 0.0009536743 0.004425049 0.003036499 -0.0035552979 0.0043945312 -0.02368164
-0.025878906 0.0018615723 0.021362305 0.030761719 0.0015411377 0.00031089783 0.01574707 -0.012817383
-0.0044555664 -0.03173828 0.004058838 0.012451172 0.008422852 -0.0134887695 0.0004386902 0.0022583008
0.0034179688 0.0046081543 -0.0074157715 0.0047912598 0.005340576 -0.013549805 -0.00021457672 -0.012573242
0.001449585 -0.010803223 0.014221191 0.0016098022 -0.0069274902 0.016357422 -0.0041503906 0.030883789
-0.03125 0.027709961 -0.0048828125 0.002105713 0.0040283203 -0.0025482178 0.007080078 0.0021209717
-0.008544922 -0.0043945312 0.028198242 -0.00030136108 0.003753662 -0.0072631836 0.000957489 -0.0008354187
0.0076904297 -0.007385254 -0.00340271 0.0019836426 0.029052734 0.010925293 0.011047363 -0.009338379
-0.013305664 -0.032470703 -0.0029907227 -0.0011901855 -0.012390137 -0.03112793 0.010009766 -0.0071105957
-0.029174805 0.0008354187 0.0024261475 0.00028038025 -0.043701172 -0.032226562 0.003692627 0.006378174
0.013000488 -0.010253906 -0.0024108887 -0.007873535 -0.003189087 0.0012512207 0.009033203 0.0007362366
0.01965332 0.0009918213 0.064453125 0.007232666 0.005126953 0.0010986328 -0.0079956055 0.02758789
-0.016845703 -0.0032043457 -0.008239746 0.0009765625 -0.007446289 0.0005760193 -0.0061035156 0.00579834
-0.007446289 0.004211426 0.008544922 6.866455e-05 0.0008735657 -0.024414062 0.0012512207 0.014526367
0.0074157715 -0.023925781 0.0027618408 0.0019073486 0.005432129 0.008117676 0.00680542 -0.00074386597
-0.008666992 -0.03125 0.0012817383 0.002456665 0.004760742 -0.0018844604 -0.004638672 0.0051574707
0.0087890625 -3.4093857e-05 -0.003753662 0.0016403198 -0.0032348633 0.0034484863 -0.032226562 -0.03173828
0.00023174286 0.0029449463 0.0043640137 0.0025177002 0.014526367 -0.012023926 0.0050964355 0.015136719
-0.0019989014 -0.010131836 -0.0126953125 -0.00028419495 -0.00680542 -0.0056762695 -0.001449585 -0.008239746
-0.0005912781 0.006225586 0.032714844 -0.000667572 -0.002090454 -0.032958984 -0.0009498596 0.0025024414
0.00062179565 0.014038086 0.0013504028 0.013061523 -0.007293701 -0.0018081665 -0.03125 0.0032196045
0.0012893677 -0.0020141602 -0.007293701 -0.00579834 0.008178711 -0.03112793 -7.581711e-05 0.0037384033
-0.008300781 0.03173828 0.0037994385 0.0078125 -0.0048217773 0.002960205 0.0034637451 -0.003768921
