data/probes_binary/layer_22/probe_situation_modification.pth (torch, 7190 bytes, 1 tensors)

linear.weight bf16 [1, 2560]
-0.0077209473 0.013793945 -0.02734375 -0.01361084 0.006500244 0.00340271 0.0011291504 0.0046081543
-0.0062561035 -0.0024261475 0.0068969727 -0.013122559 -0.0067749023 0.0027313232 -0.002746582 -0.0032043457
-0.0033416748 -0.01953125 -0.010192871 -0.00037002563 -0.03125 -0.008911133 0.000541687 -0.009765625
0.030639648 -0.03149414 -0.0018157959 0.003692627 0.0013046265 -0.04272461 0.0119018555 -0.007293701
0.010864258 -0.007385254 0.0015258789 -0.009155273 0.010681152 -0.012634277 0.003250122 -0.024536133
0.0051574707 0.0047302246 0.005340576 0.0013122559 -0.0043945312 0.010437012 0.010437012 0.0026397705
-0.0041503906 -0.0024261475 0.007873535 0.0037841797 -0.0033874512 -0.008300781 -0.0002937317 -0.0013122559
-0.0013275146 0.0020446777 0.0013809204 -0.02709961 -0.002456665 -0.0028076172 0.030395508 -0.005432129
-0.03125 -2.8133392e-05 0.020996094 -0.026000977 -0.025146484 -0.012084961 -0.015991211 0.03125
-0.013366699 0.02331543 0.0038146973 0.00093460083 -0.009460449 -0.010375977 -0.0056152344 -0.007171631
0.0019378662 0.0022583008 -0.0070495605 -0.010131836 0.0034179688 0.04248047 0.0023956299 0.003479004
-0.038085938 0.005218506 0.0034942627 -0.0028839111 -0.0048217773 -0.006011963 0.004119873 -0.0022277832
0.0004081726 -0.0008087158 -0.012329102 -0.0056762695 0.014587402 -0.015625 -0.002380371 -0.014343262
0.030883789 -0.01928711 0.011779785 0.016113281 0.0068969727 0.017333984 0.013427734 0.010803223
-0.012451172 0.006500244 0.027832031 0.0026245117 -0.0041503906 0.032226562 0.0065612793 0.0013427734
-0.0032043457 -0.0030059814 -0.01940918 -0.0025024414 -0.006866455 -0.002380371 0.00051498413 -0.017089844
0.009643555 -0.0040893555 0.015380859 -0.0010910034 0.04272461 0.016845703 -0.03125 0.0014343262
-0.0050964355 -0.02734375 0.012145996 -0.0020446777 0.002960205 0.0068359375 -0.024047852 -0.00592041
0.0005493164 -0.0035552979 0.0040283203 -0.052734375 0.032226562 -0.041992188 -0.029052734 -0.05053711
-0.02331543 0.0146484375 -0.0028381348 0.0004196167 -0.0021972656 0.00065612793 0.008178711 -0.0008468628
-0.0073242188 0.006225586 -0.030395508 0.015258789 -0.002166748 -0.0033874512 0.0072631836 -0.026000977
-0.00024795532 -0.0026245117 -0.0078125 -0.00011730194 0.03125 0.008422852 0.03125 -0.00026512146
0.0008621216 -0.0051574707 -0.02355957 0.0005722046 -0.01184082 -0.028442383 -0.0008506775 -0.029418945
-0.026123047 0.010131836 -0.0021972656 -0.0067749023 0.0045166016 0.004547119 -0.01550293 -0.0058898926
0.0012969971 0.008300781 0.0015869141 0.0066833496 -0.03125 0.0021514893 -0.011291504 0.008544922
0.0038146973 0.00074386597 0.00061798096 -0.022827148 0.0014266968 0.0018157959 -0.030761719 0.012756348
0.001953125 0.003753662 -0.0028076172 -0.009521484 -0.012268066 0.006866455 -0.00045013428 0.034179688
0.00035858154 0.0146484375 0.0035247803 0.005126953 0.022094727 -0.0048217773 -0.0010070801 -0.0016479492
-0.0029449463 -0.0032196045 -0.009460449 -0.0014343262 0.0049438477 -0.022583008 0.0076293945 -0.0037078857
-0.0075683594 0.03515625 0.0027008057 -0.03125 0.015563965 0.0018386841 0.0060424805 0.0073242188
0.0062561035 0.0066833496 -0.00075149536 -0.003616333 0.008422852 0.002609253 -0.005554199 0.0052490234
0.0138549805 -0.0032043457 -0.007598877 -0.009521484 -0.002090454 0.003616333 -0.015625 -0.0032806396
00000000: fdbb 623c e0bc 5fbc d53b 5f3b 943a 973b
00000010: cdbb 1fbb e23b 57bc debb 333b 34bb 52bb
00000020: 5bbb a0bc 27bc c2b9 00bd 12bc 0e3a 20bc
00000030: fb3c 01bd eeba 723b ab3a 2fbd 433c efbb
00000040: 323c f2bb c83a 16bc 2f3c 4fbc 553b c9bc
00000050: a93b 9b3b af3b ac3a 90bb 2b3c 2b3c 2d3b
00000060: 88bb 1fbb 013c 783b 5ebb 08bc 9ab9 acba
00000070: aeba 063b b53a debc 21bb 38bb f93c b2bb
00000080: 00bd ecb7 ac3c d5bc cebc 46bc 83bc 003d
00000090: 5bbc bf3c 7a3b 753a 1bbc 2abc b8bb ebbb
000000a0: fe3a 143b e7bb 26bc 603b 2e3d 1d3b 643b
000000b0: 1cbd ab3b 653b 3dbb 9ebb c5bb 873b 12bb
000000c0: d639 54ba 4abc babb 6f3c 80bc 1cbb 6bbc
000000d0: fd3c 9ebc 413c 843c e23b 8e3c 5c3c 313c
000000e0: 4cbc d53b e43c 2c3b 88bb 043d d73b b03a
000000f0: 52bb 45bb 9fbc 24bb e1bb 1cbb 073a 8cbc
00000100: 1e3c 86bb 7c3c 8fba 2f3d 8a3c 00bd bc3a
00000110: a7bb e0bc 473c 06bb 423b e03b c5bc c2bb
00000120: 103a 69bb 843b 58bd 043d 2cbd eebc 4fbd
00000130: bfbc 703c 3abb dc39 10bb 2c3a 063c 5eba
00000140: f0bb cc3b f9bc 7a3c 0ebb 5ebb ee3b d5bc
00000150: 82b9 2cbb 00bc f6b8 003d 0a3c 003d 8bb9
00000160: 623a a9bb c1bc 163a 42bc e9bc 5fba f1bc
00000170: d6bc 263c 10bb debb 943b 953b 7ebc c1bb
00000180: aa3a 083c d03a db3b 00bd 0d3b 39bc 0c3c
00000190: 7a3b 433a 223a bbbc bb3a ee3a fcbc 513c
000001a0: 003b 763b 38bb 1cbc 49bc e13b ecb9 0c3d
000001b0: bc39 703c 673b a83b b53c 9ebb 84ba d8ba
000001c0: 41bb 53bb 1bbc bcba a23b b9bc fa3b 73bb
000001d0: f8bb 103d 313b 00bd 7f3c f13a c63b f03b
000001e0: cd3b db3b 45ba 6dbb 0a3c 2b3b b6bb ac3b
000001f0: 633c 52bb f9bb 1cbc 09bb 6d3b 80bc 57bb
