data/probes_binary/layer_28/probe_zooming_out.pth (torch, 6996 bytes, 1 tensors)

linear.weight bf16 [1, 2560]
-0.00063323975 -0.021240234 -0.00010251999 -0.017578125 -0.00050354004 -0.0036621094 -0.018920898 -0.019042969
0.014526367 0.017456055 0.0059509277 0.0037078857 0.0099487305 0.024780273 0.01361084 0.012939453
0.00031280518 -0.003189087 0.010437012 0.00016975403 -0.032226562 -0.028808594 -0.030273438 0.025512695
-0.0062561035 0.011474609 -0.017456055 -0.015319824 -0.0011749268 0.008178711 0.018676758 -0.021606445
-0.0038757324 0.018310547 -0.010375977 -0.0073547363 0.008178711 0.0014343262 -0.024658203 -0.014587402
0.017700195 0.0015716553 -0.014953613 0.00014686584 0.008239746 -0.007751465 -0.017822266 0.017089844
0.010681152 -0.012573242 0.010314941 -0.032226562 -0.003326416 0.026733398 -0.0038757324 0.0006637573
0.0010528564 -0.03112793 -0.017089844 0.01965332 0.009033203 0.012634277 0.0046691895 0.011962891
0.029052734 0.0034484863 -0.017333984 -0.0119018555 -0.01373291 -0.0013275146 -0.015563965 0.0008163452
-0.016113281 -0.009521484 -0.010620117 -0.041503906 -0.024291992 -0.033935547 -0.0065612793 0.0115356445
0.016601562 -0.0013046265 -0.0032806396 0.0028381348 -0.01940918 -0.017089844 0.018432617 -0.0049743652
-0.0063171387 0.009460449 0.00793457 0.017578125 -0.0015792847 0.0068359375 -0.048339844 -0.022094727
0.0036010742 0.020751953 -0.014099121 -0.0078125 0.0035858154 -0.03491211 0.0234375 0.00077056885
-0.0029754639 -0.011779785 -0.0031280518 -0.008972168 -0.021118164 0.029174805 0.0020751953 0.039794922
0.0010757446 -0.024658203 0.025024414 -0.0012283325 0.00982666 -0.0021209717 0.0002002716 -0.024291992
0.011657715 -0.0077819824 -0.0126953125 -0.0015106201 -0.0072631836 -0.009765625 -0.0057373047 0.0001821518
-0.014343262 -0.0075683594 0.016967773 -0.0010299683 0.006134033 0.006958008 -0.024536133 -0.0022735596
0.041992188 0.001625061 0.022583008 0.00390625 -0.036621094 -0.0009613037 -0.012329102 0.0010757446
-0.009094238 -0.014953613 0.005859375 -0.018798828 0.00015258789 0.019897461 -0.0014953613 0.007232666
0.02746582 0.009765625 -0.03491211 -0.013916016 0.012023926 0.016967773 -0.020507812 0.0087890625
-0.0154418945 -0.013366699 0.01977539 0.013366699 -0.012451172 0.012390137 -0.028198242 0.000415802
-0.0027008057 0.006439209 0.0154418945 0.008422852 0.040771484 0.0008239746 0.0001335144 2.0742416e-05
-0.0052490234 -0.012939453 0.003753662 -0.00793457 -0.031982422 -0.032226562 -0.009399414 0.012145996
-0.036376953 -0.014343262 -0.015136719 0.016723633 -0.017944336 -0.0032348633 -0.014709473 -0.0018844604
0.008666992 -0.0029754639 -0.002532959 0.02368164 0.0071411133 0.005218506 -0.0025634766 -0.016357422
0.009460449 0.015197754 -0.004211426 0.03149414 -0.007873535 -0.044189453 -0.00090026855 -0.03491211
-0.021240234 0.008544922 0.008728027 0.036376953 0.010925293 0.022949219 0.010986328 -0.0067443848
-0.009765625 -0.017456055 -9.059906e-06 -0.038085938 0.0078125 -0.012512207 -0.030883789 -0.0119018555
-0.00078964233 0.0066223145 -0.005279541 0.00024604797 -0.02722168 -0.03149414 -0.040283203 -0.0041503906
0.020141602 0.030639648 0.035888672 -0.0234375 0.022338867 0.012023926 0.010986328 -0.02746582
0.013366699 0.020263672 0.01361084 0.03125 0.0138549805 -0.0017852783 -0.0032806396 0.041748047
-0.0009536743 -0.005493164 0.024658203 -0.008117676 0.0062561035 0.008361816 -0.010559082 -0.001739502
00000000: 26ba aebc d7b8 90bc 04ba 70bb 9bbc 9cbc
00000010: 6e3c 8f3c c33b 733b 233c cb3c 5f3c 543c
00000020: a439 51bb 2b3c 3239 04bd ecbc f8bc d13c
00000030: cdbb 3c3c 8fbc 7bbc 9aba 063c 993c b1bc
00000040: 7ebb 963c 2abc f1bb 063c bc3a cabc 6fbc
00000050: 913c ce3a 75bc 1a39 073c febb 92bc 8c3c
00000060: 2f3c 4ebc 293c 04bd 5abb db3c 7ebb 2e3a
00000070: 8a3a ffbc 8cbc a13c 143c 4f3c 993b 443c
00000080: ee3c 623b 8ebc 43bc 61bc aeba 7fbc 563a
00000090: 84bc 1cbc 2ebc 2abd c7bc 0bbd d7bb 3d3c
000000a0: 883c abba 57bb 3a3b 9fbc 8cbc 973c a3bb
000000b0: cfbb 1b3c 023c 903c cfba e03b 46bd b5bc
000000c0: 6c3b aa3c 67bc 00bc 6b3b 0fbd c03c 4a3a
000000d0: 43bb 41bc 4dbb 13bc adbc ef3c 083b 233d
000000e0: 8d3a cabc cd3c a1ba 213c 0bbb 5239 c7bc
000000f0: 3f3c ffbb 50bc c6ba eebb 20bc bcbb 3f39
00000100: 6bbc f8bb 8b3c 87ba c93b e43b c9bc 15bb
00000110: 2c3d d53a b93c 803b 16bd 7cba 4abc 8d3a
00000120: 15bc 75bc c03b 9abc 2039 a33c c4ba ed3b
00000130: e13c 203c 0fbd 64bc 453c 8b3c a8bc 103c
00000140: 7dbc 5bbc a23c 5b3c 4cbc 4b3c e7bc da39
00000150: 31bb d33b 7d3c 0a3c 273d 583a 0c39 ae37
00000160: acbb 54bc 763b 02bc 03bd 04bd 1abc 473c
00000170: 15bd 6bbc 78bc 893c 93bc 54bb 71bc f7ba
00000180: 0e3c 43bb 26bb c23c ea3b ab3b 28bb 86bc
00000190: 1b3c 793c 8abb 013d 01bc 35bd 6cba 0fbd
000001a0: aebc 0c3c 0f3c 153d 333c bc3c 343c ddbb
000001b0: 20bc 8fbc 18b7 1cbd 003c 4dbc fdbc 43bc
000001c0: 4fba d93b adbb 8139 dfbc 01bd 25bd 88bb
000001d0: a53c fb3c 133d c0bc b73c 453c 343c e1bc
000001e0: 5b3c a63c 5f3c 003d 633c eaba 57bb 2b3d
000001f0: 7aba b4bb ca3c 05bc cd3b 093c 2dbc e4ba
