data/probes_binary/layer_3/probe_remembering.pth (torch, 6996 bytes, 1 tensors)

linear.weight bf16 [1, 2560]
00000000: 733c 83bc 833d 553d d93b 70bd 10bd 003c
00000010: 0ebc f13c ff3c 2abb 263c 5dbb e1bc b33b
00000020: 203d ebbc 47bb 2b3c 053d c3bb 01bd f7bc
00000030: e33c f53b ecbc 813d 263b 74bb 5cbc 80bd
00000040: 24bc 8b3b cabc d93c bcba c63b 12bb 7ebc
00000050: 003c bc3c 573c 9d3c a3bb 22bc 863c 10bd
00000060: 8fbb 02bb 07bd 573c c23c 90bb e43c 6a3b
00000070: 54bc babc afbb 0d3d 14bb cabb 823c c4bb
00000080: 453d 67bd 0f3b 28bd 1dbb db3c 47bc 753c
00000090: 03bc 66bb 88bb 163d b1ba 0bbb 4f3c 06bd
000000a0: b539 e4bc 493c acbb 07bd 923c 393d db3c
000000b0: c0bc 963d 1dbd c43b 3ab9 04bd ce3b d7bc
000000c0: 273d bb3c 6f3d acbc 1ebc 06bc 9bbc 763d
000000d0: 803c ea3c 903b 0e3d 883c abbc 493c dabc
000000e0: f1bc 5d3c 003d 823d 5ebb 80bd ccbc 02bc
000000f0: 623d 81bc 003d 083d 1fbd 8fba 24bb 5ebc
00000100: af3b 67bc e5bc 213d efbc 753c d0bc 943c
00000110: 20bc 803d 4d3c 2d3c df3c 36bd 50bd 023c
00000120: d5bc 183c 87bc 01bd 473c 803d 0c3c febb
00000130: fd3c 003d 72bc 083d c03c b63b 19ba 963b
00000140: 88bd 1dbd 973b 873d 31bb 7e3d 313c e73c
00000150: 18bc a93c d83c 653c 1fbc b3bc 843d 063d
00000160: 99bc 373c 91bb 00bd 3cbd 0bbd 633b 77bb
00000170: 133c 843c c83b 0e3d 083b 05bd cd3c d3bc
00000180: d43b 0d3d 033d b63c aabc 323d 313c 50bb
00000190: c63c b6bc 1e3c 93bc 9eba 80bd f9bc 89bb
000001a0: 183d 60bb 1a3d 69bc 153d 983c d4b9 b73a
000001b0: 603c 16bd 223d 803d 463c 463d 8c3b cbba
000001c0: 283c 003c 62bc 74bd 05bd c93b 883d bbbc
000001d0: baba 99ba 273c b5ba f13a 59bc dc3c 003d
000001e0: 813d 98bd 9c3a 003c 9c3d 673c 4bba 00bd
000001f0: 763c b2bc 3f3b 00bd b53c bebb 69bb 023d
0.014831543 -0.015991211 0.063964844 0.052001953 0.0066223145 -0.05859375 -0.03515625 0.0078125
-0.008666992 0.029418945 0.03112793 -0.0025939941 0.010131836 -0.0033721924 -0.02746582 0.0054626465
0.0390625 -0.028686523 -0.003036499 0.010437012 0.032470703 -0.0059509277 -0.03149414 -0.030151367
0.027709961 0.0074768066 -0.028808594 0.06298828 0.002532959 -0.0037231445 -0.013427734 -0.0625
-0.010009766 0.0042419434 -0.024658203 0.026489258 -0.0014343262 0.0060424805 -0.0022277832 -0.01550293
0.0078125 0.022949219 0.013122559 0.019165039 -0.0049743652 -0.009887695 0.016357422 -0.03515625
-0.0043640137 -0.0019836426 -0.032958984 0.013122559 0.02368164 -0.0043945312 0.027832031 0.0035705566
-0.012939453 -0.022705078 -0.005340576 0.034423828 -0.0022583008 -0.006164551 0.01586914 -0.0059814453
0.048095703 -0.056396484 0.0021820068 -0.041015625 -0.0023956299 0.026733398 -0.012145996 0.014953613
-0.0079956055 -0.0035095215 -0.0041503906 0.036621094 -0.0013504028 -0.0021209717 0.012634277 -0.032714844
0.0003452301 -0.027832031 0.012268066 -0.0052490234 -0.032958984 0.017822266 0.045166016 0.026733398
-0.0234375 0.07324219 -0.038330078 0.0059814453 -0.00017738342 -0.032226562 0.006286621 -0.026245117
0.040771484 0.022827148 0.05834961 -0.020996094 -0.009643555 -0.008178711 -0.018920898 0.060058594
0.015625 0.028564453 0.0043945312 0.03466797 0.016601562 -0.020874023 0.012268066 -0.026611328
-0.029418945 0.0134887695 0.03125 0.06347656 -0.0033874512 -0.0625 -0.024902344 -0.00793457
0.05517578 -0.01574707 0.03125 0.033203125 -0.03881836 -0.0010910034 -0.0025024414 -0.013549805
0.005340576 -0.014099121 -0.027954102 0.03930664 -0.029174805 0.014953613 -0.025390625 0.018066406
-0.009765625 0.0625 0.012512207 0.010559082 0.02722168 -0.044433594 -0.05078125 0.00793457
-0.026000977 0.009277344 -0.016479492 -0.03149414 0.012145996 0.0625 0.008544922 -0.007751465
0.030883789 0.03125 -0.014770508 0.033203125 0.0234375 0.005554199 -0.0005836487 0.0045776367
-0.06640625 -0.038330078 0.0046081543 0.06591797 -0.0027008057 0.06201172 0.010803223 0.028198242
-0.009277344 0.020629883 0.026367188 0.013977051 -0.00970459 -0.021850586 0.064453125 0.032714844
-0.018676758 0.011169434 -0.004425049 -0.03125 -0.045898438 -0.033935547 0.0034637451 -0.003768921
0.008972168 0.016113281 0.0061035156 0.03466797 0.0020751953 -0.032470703 0.025024414 -0.025756836
0.0064697266 0.034423828 0.031982422 0.022216797 -0.020751953 0.04345703 0.010803223 -0.0031738281
0.024169922 -0.022216797 0.009643555 -0.017944336 -0.0012054443 -0.0625 -0.030395508 -0.004180908
0.037109375 -0.0034179688 0.037597656 -0.014221191 0.036376953 0.018554688 -0.0004043579 0.0013961792
0.013671875 -0.036621094 0.03955078 0.0625 0.012084961 0.048339844 0.004272461 -0.0015487671
0.010253906 0.0078125 -0.013793945 -0.059570312 -0.032470703 0.006134033 0.06640625 -0.022827148
-0.0014190674 -0.0011672974 0.010192871 -0.0013809204 0.0018386841 -0.013244629 0.026855469 0.03125
0.06298828 -0.07421875 0.0011901855 0.0078125 0.076171875 0.014099121 -0.00077438354 -0.03125
0.015014648 -0.021728516 0.0029144287 -0.03125 0.022094727 -0.00579834 -0.0035552979 0.03173828
