data/probes_binary/layer_3/probe_accepting.pth (torch, 6984 bytes, 1 tensors)

linear.weight bf16 [1, 2560]
0	0x3bc7	0.006072998
1	0xbc6e	-0.014526367
2	0x3d8a	0.06738281
3	0x3d0b	0.033935547
4	0x3b08	0.0020751953
5	0x3d5c	0.053710938
6	0x3d57	0.052490234
7	0x3ca1	0.01965332
8	0x3d16	0.036621094
9	0xbc21	-0.00982666
10	0x3cc7	0.024291992
11	0xbb3a	-0.0028381348
12	0xbc79	-0.015197754
13	0xbbe8	-0.007080078
14	0x3d80	0.0625
15	0x3c77	0.015075684
16	0x3bf0	0.0073242188
17	0xbceb	-0.028686523
18	0xbbf2	-0.007385254
19	0x3cf0	0.029296875
20	0xbc88	-0.016601562
21	0xbd07	-0.032958984
22	0x3d0d	0.034423828
23	0x3cf5	0.029907227
24	0x3bbe	0.00579834
25	0xbb1c	-0.002380371
26	0x3c95	0.018188477
27	0xbd84	-0.064453125
28	0xbb33	-0.0027313232
29	0xb9bf	-0.0003643036
30	0x3c8a	0.016845703
31	0x3d46	0.048339844
32	0xbb30	-0.0026855469
33	0xbce9	-0.028442383
34	0xbd03	-0.031982422
35	0x3d18	0.037109375
36	0xbbe1	-0.006866455
37	0xbc48	-0.012207031
38	0xbc28	-0.010253906
39	0x3c9e	0.01928711
40	0xbc41	-0.011779785
41	0xbd42	-0.04736328
42	0x3ba1	0.00491333
43	0x3c87	0.016479492
44	0xbbf5	-0.0074768066
45	0x3c49	0.012268066
46	0x3d00	0.03125
47	0x3d19	0.037353516
48	0xbc7a	-0.015258789
49	0xba56	-0.0008163452
50	0x3c1f	0.00970459
51	0xbc92	-0.017822266
52	0xbd00	-0.03125
53	0xbbf7	-0.007537842
54	0xbc9f	-0.01940918
55	0xbcfc	-0.030761719
56	0xbc32	-0.010864258
57	0xbccb	-0.024780273
58	0x3b36	0.0027770996
59	0x3c51	0.012756348
60	0xbc72	-0.014770508
61	0x3d41	0.04711914
62	0xbd24	-0.040039062
63	0xbcf2	-0.029541016
64	0x3c83	0.015991211
65	0x3d2b	0.041748047
66	0xbb25	-0.0025177002
67	0x3d0f	0.03491211
68	0x3a16	0.0005722046
69	0xbc00	-0.0078125
70	0xbbdf	-0.00680542
71	0xbce3	-0.027709961
72	0x3c12	0.008911133
73	0xba36	-0.0006942749
74	0xbb84	-0.0040283203
75	0xbc74	-0.014892578
76	0x3ab4	0.001373291
77	0x3cbd	0.023071289
78	0x3d30	0.04296875
79	0x3d25	0.040283203
80	0xba9c	-0.0011901855
81	0xbc26	-0.010131836
82	0xbd7d	-0.061767578
83	0x3cce	0.025146484
84	0x3d23	0.039794922
85	0x3d80	0.0625
86	0xbc48	-0.012207031
87	0x3cd6	0.026123047
88	0x3c80	0.015625
89	0xbc09	-0.008361816
90	0x3d30	0.04296875
91	0x3c08	0.008300781
92	0x39d7	0.00041007996
93	0xbc1f	-0.00970459
94	0x3c89	0.016723633
95	0xbc58	-0.013183594
96	0xbd73	-0.059326172
97	0x3d23	0.039794922
98	0xbd7f	-0.06225586
99	0x3cda	0.026611328
100	0x3c78	0.015136719
101	0x3c94	0.018066406
102	0xbbfe	-0.007751465
103	0xbd0c	-0.034179688
104	0x3b19	0.0023345947
105	0xb9ae	-0.00033187866
106	0xbc07	-0.008239746
107	0x3c91	0.017700195
108	0x3b81	0.0039367676
109	0xbb6e	-0.0036315918
110	0x3c5d	0.0134887695
111	0xbc7d	-0.0154418945
112	0xbc10	-0.0087890625
113	0xbd25	-0.040283203
114	0xbd80	-0.0625
115	0x3cb9	0.022583008
116	0x3c07	0.008239746
117	0x3d95	0.072753906
118	0xbb6f	-0.0036468506
119	0x3d67	0.056396484
120	0xbd43	-0.047607422
121	0x3d04	0.032226562
122	0x3a6f	0.00091171265
123	0xbcee	-0.029052734
124	0x3d01	0.03149414
125	0x3b6c	0.0036010742
126	0xbb21	-0.002456665
127	0x3a72	0.00092315674
128	0x3c80	0.015625
129	0xbcfe	-0.03100586
130	0x3d80	0.0625
131	0xbd1b	-0.037841797
132	0x3cdf	0.02722168
133	0xbd28	-0.041015625
134	0x3c85	0.016235352
135	0x3d43	0.047607422
136	0x3ca9	0.020629883
137	0xbd0f	-0.03491211
138	0xbd24	-0.040039062
139	0xbca7	-0.020385742
140	0x3c53	0.012878418
141	0x3d57	0.052490234
142	0xbd16	-0.036621094
143	0xbc7d	-0.0154418945
144	0x3c16	0.009155273
145	0xbb4b	-0.0030975342
146	0xbd78	-0.060546875
147	0xbb15	-0.0022735596
148	0xbd27	-0.040771484
149	0xbd04	-0.032226562
150	0x3c89	0.016723633
151	0x3bdf	0.00680542
152	0x3bd0	0.0063476562
153	0xbd7a	-0.061035156
154	0xbc61	-0.01373291
155	0xbc5a	-0.013305664
156	0xbc69	-0.014221191
157	0xbd20	-0.0390625
158	0x39db	0.00041770935
159	0xbcb2	-0.021728516
160	0x3c4d	0.012512207
161	0x3c29	0.010314941
162	0x3a9f	0.0012130737
163	0xbda6	-0.08105469
164	0xbc63	-0.0138549805
165	0x3d34	0.043945312
166	0x3beb	0.007171631
167	0xbcd2	-0.025634766
168	0xbd0a	-0.033691406
169	0xbc70	-0.0146484375
170	0xbcfe	-0.03100586
171	0xbcff	-0.03112793
172	0xbc08	-0.008300781
173	0x3b99	0.0046691895
174	0x3d88	0.06640625
175	0xbac4	-0.0014953613
176	0x3c9f	0.01940918
177	0x3c4f	0.012634277
178	0xbc2e	-0.010620117
179	0x3d45	0.048095703
180	0x3d10	0.03515625
181	0x3d48	0.048828125
182	0x3c7b	0.015319824
183	0x3b2e	0.0026550293
184	0x3c79	0.015197754
185	0xbcf2	-0.029541016
186	0x3cef	0.029174805
187	0x3bad	0.005279541
188	0x3cf2	0.029541016
189	0x3bf7	0.007537842
190	0xbcad	-0.021118164
191	0x3c82	0.01586914
192	0xbc7b	-0.015319824
193	0xbcff	-0.03112793
194	0x3b8b	0.0042419434
195	0x3ca2	0.01977539
196	0x3d98	0.07421875
197	0xbc6a	-0.014282227
198	0xbc88	-0.016601562
199	0x3b25	0.0025177002
200	0x3c31	0.010803223
201	0x3cb2	0.021728516
202	0xbd09	-0.033447266
203	0xbc0e	-0.008666992
204	0xbca0	-0.01953125
205	0x3d03	0.031982422
206	0x3c80	0.015625
207	0xbb33	-0.0027313232
208	0x3cff	0.03112793
209	0x3b82	0.003967285
210	0x3d00	0.03125
211	0xbd08	-0.033203125
212	0xbcb8	-0.022460938
213	0x3c4e	0.012573242
214	0x3a48	0.00076293945
215	0x3a93	0.001121521
216	0x3ce5	0.027954102
217	0x3cf1	0.029418945
218	0x3d46	0.048339844
219	0xbbf9	-0.007598877
220	0x3d08	0.033203125
221	0xbba1	-0.00491333
222	0xbce6	-0.028076172
223	0x3d16	0.036621094
224	0xbb91	-0.004425049
225	0xba87	-0.0010299683
226	0xbbd4	-0.0064697266
227	0x3d60	0.0546875
228	0x3d17	0.036865234
229	0x3bd0	0.0063476562
230	0xbd3c	-0.045898438
231	0x3c09	0.008361816
232	0xba22	-0.00061798096
233	0xbcdd	-0.026977539
234	0xbb89	-0.004180908
235	0xbb69	-0.0035552979
236	0x3a51	0.0007972717
237	0x3bf0	0.0073242188
238	0xbd02	-0.03173828
239	0xbc59	-0.013244629
240	0xbd81	-0.06298828
241	0xbd81	-0.06298828
242	0x3cf8	0.030273438
243	0x3cfe	0.03100586
244	0xbd87	-0.06591797
245	0xbd62	-0.05517578
246	0xbc75	-0.014953613
247	0x3d0c	0.034179688
248	0x3c7c	0.015380859
249	0x3bed	0.007232666
250	0xbb42	-0.002960205
251	0xbd13	-0.035888672
252	0xbcf5	-0.029907227
253	0xbc35	-0.011047363
254	0xbaff	-0.0019454956
255	0xbcf9	-0.030395508
