data/probes_binary/layer_3/probe_response_modulation.pth (torch, 7172 bytes, 1 tensors)

linear.weight bf16 [1, 2560]
00000000: cdba 833c 44bd 803d 74bc 40bc d23c 9d3c
00000010: 5abb 50bc dc3c 7cbb 9fbc 003d 503d 793c
00000020: 903b 143c 33ba daba a4bb c8ba 80bc 26bc
00000030: cdbc c53b 7cbc 14bd 6b3c c1ba a53c c53c
00000040: 0abd 8939 fe3c 933c 463c bb3c 39bc 503c
00000050: a2bb cc3c 4e3c ab3b f4b9 88bc 253a 423c
00000060: fcbb e0ba 023d 2bbc 9a3b b2bb 233d df3b
00000070: 0abd 7c3c 02ba f53b 24bb 873c 173b 003d
00000080: ecbc 4fbd a63c 52bc 0f3b 99bc 003d 4a3d
00000090: a739 893b 8d3b 023d 0cbb 033d 0d3c 3cbd
000000a0: 22ba fd3c c8bb 4d3c 88bc 803d 0e3d fbbb
000000b0: 3d3c 6a3d 8a3d 1b3a 01bd bfbb 263d 093d
000000c0: 75bd e1bb 193d ecbc e03c dd3b a0bc 84bd
000000d0: 9fbb 013d e73b c13c 0d3b d9ba f93b 40bc
000000e0: e73c 873c cdbc 7ebd 893a 813d 4b3c 713c
000000f0: fd3b 423c a33b 32bc da3b 643c 3a39 ecbc
00000100: 5a3a 6b3c 803d 06bd 0c3d 8f3b 69bc 003d
00000110: 59bb ddbc f13c 4bbc ccbb 40bd 41bc dcba
00000120: 5dba 103b 6fbd f83c 1fbd 00bd ecbc f8bc
00000130: f4bc 40bc a1bb ecbc 34bc 133c eeb9 07bd
00000140: 813d 813d f1ba 543d da3b 8ebd 323d e3bc
00000150: bebc 8839 373c 133d 0ebd 0b3d 3c3d de3c
00000160: 43bd 02bd bdbb 673c 48bd 5d3d b73b 33bb
00000170: 723c 3e3c 723c fe3c c43c 80bd 4ebc d13a
00000180: 4cbc 1b3d b13c 833d 80bd b9bc feba fd3c
00000190: 343c d8bb 13bc 77bc 643c 8f3c 4a3d 23bb
000001a0: 02bc e53c 02bd 1dbb ab3b 3f3c 2f3b 06ba
000001b0: bb3b 7ebc df3c c03c 463c 66bc 573c 9d3c
000001c0: ef3a 2c3c fb3c 923d 833c 7ebc 433d 0bbc
000001d0: 5ab9 4fbc 84bc dbba 9a3a ad3a 4bbc a13c
000001e0: 8c3d fdbc 083d 05bd 49bd 073d 8b3b 09bd
000001f0: 573c 9cbb be3b 2b3d 6abb edbc 5b39 ba3c
-0.0015640259 0.015991211 -0.047851562 0.0625 -0.014892578 -0.01171875 0.025634766 0.019165039
-0.003326416 -0.0126953125 0.026855469 -0.0038452148 -0.01940918 0.03125 0.05078125 0.015197754
0.0043945312 0.009033203 -0.0006828308 -0.001663208 -0.005004883 -0.0015258789 -0.015625 -0.010131836
-0.025024414 0.006011963 -0.015380859 -0.036132812 0.014343262 -0.0014724731 0.020141602 0.024047852
-0.033691406 0.00026130676 0.03100586 0.017944336 0.012084961 0.022827148 -0.011291504 0.0126953125
-0.0049438477 0.024902344 0.012573242 0.005218506 -0.00046539307 -0.016601562 0.00062942505 0.01184082
-0.0076904297 -0.0017089844 0.03173828 -0.010437012 0.004699707 -0.005432129 0.039794922 0.00680542
-0.033691406 0.015380859 -0.00049591064 0.0074768066 -0.0025024414 0.016479492 0.0023040771 0.03125
-0.028808594 -0.05053711 0.020263672 -0.012817383 0.0021820068 -0.018676758 0.03125 0.049316406
0.00031852722 0.004180908 0.0043029785 0.03173828 -0.0021362305 0.031982422 0.008605957 -0.045898438
-0.00061798096 0.030883789 -0.0061035156 0.012512207 -0.016601562 0.0625 0.03466797 -0.007659912
0.0115356445 0.057128906 0.06738281 0.0005912781 -0.03149414 -0.0058288574 0.040527344 0.033447266
-0.059814453 -0.006866455 0.037353516 -0.028808594 0.02734375 0.0067443848 -0.01953125 -0.064453125
-0.004852295 0.03149414 0.0070495605 0.02355957 0.0021514893 -0.0016555786 0.007598877 -0.01171875
0.028198242 0.016479492 -0.025024414 -0.06201172 0.001045227 0.06298828 0.012390137 0.014709473
0.0077209473 0.01184082 0.0049743652 -0.010864258 0.006652832 0.013916016 0.00017738342 -0.028808594
0.000831604 0.014343262 0.0625 -0.032714844 0.034179688 0.0043640137 -0.014221191 0.03125
-0.0033111572 -0.026977539 0.029418945 -0.012390137 -0.006225586 -0.046875 -0.011779785 -0.0016784668
-0.0008430481 0.0021972656 -0.05834961 0.030273438 -0.03881836 -0.03125 -0.028808594 -0.030273438
-0.029785156 -0.01171875 -0.00491333 -0.028808594 -0.010986328 0.008972168 -0.00045394897 -0.032958984
0.06298828 0.06298828 -0.0018386841 0.051757812 0.006652832 -0.06933594 0.04345703 -0.027709961
-0.02319336 0.0002593994 0.011169434 0.035888672 -0.03466797 0.033935547 0.045898438 0.02709961
-0.047607422 -0.03173828 -0.0057678223 0.014099121 -0.048828125 0.053955078 0.005584717 -0.0027313232
0.014770508 0.01159668 0.014770508 0.03100586 0.023925781 -0.0625 -0.012573242 0.0015945435
-0.012451172 0.037841797 0.021606445 0.063964844 -0.0625 -0.022583008 -0.0019378662 0.030883789
0.010986328 -0.006591797 -0.008972168 -0.015075684 0.013916016 0.017456055 0.049316406 -0.0024871826
-0.00793457 0.027954102 -0.03173828 -0.0023956299 0.005218506 0.011657715 0.002670288 -0.00051116943
0.005706787 -0.01550293 0.02722168 0.0234375 0.012084961 -0.014038086 0.013122559 0.019165039
0.0018234253 0.010498047 0.030639648 0.07128906 0.015991211 -0.01550293 0.047607422 -0.008483887
-0.000207901 -0.012634277 -0.016113281 -0.0016708374 0.0011749268 0.0013198853 -0.012390137 0.01965332
0.068359375 -0.030883789 0.033203125 -0.032470703 -0.049072266 0.032958984 0.0042419434 -0.033447266
0.013122559 -0.004760742 0.00579834 0.041748047 -0.0035705566 -0.028930664 0.00020885468 0.022705078
