data/probes_binary/layer_8/probe_questioning.pth (torch, 6996 bytes, 1 tensors)

linear.weight bf16 [1, 2560]
000000 d6 bb 30 3c 81 3c 9f 3b 5b bb e1 bc c1 3b 09 bb
       -0.0065307617 0.0107421875 0.01574707 0.004852295 -0.0033416748 -0.02746582 0.0058898926 -0.002090454
000010 5c bb 08 3b 01 bd 9a bc 2c 3b b5 bc 41 bc d9 3c
       -0.0033569336 0.0020751953 -0.03149414 -0.018798828 0.0026245117 -0.022094727 -0.011779785 0.026489258
000020 71 bb 40 bb 00 bd ed bc c2 3b b6 bc b4 bb 19 bc
       -0.0036773682 -0.0029296875 -0.03125 -0.028930664 0.00592041 -0.022216797 -0.005493164 -0.009338379
000030 47 3c c2 bc 06 bd 97 bc 12 bb 1d bb 11 3a ea 3b
       0.012145996 -0.02368164 -0.032714844 -0.018432617 -0.0022277832 -0.0023956299 0.0005531311 0.0071411133
000040 87 3a 79 bd b3 bb 65 bd f3 bc 20 bc 8e 3c 2f 3c
       0.0010299683 -0.060791016 -0.0054626465 -0.055908203 -0.029663086 -0.009765625 0.017333984 0.010681152
000050 95 bb c9 3c a1 bc ea bb ff bc d4 bb b6 bc 09 3d
       -0.004547119 0.024536133 -0.01965332 -0.0071411133 -0.03112793 -0.0064697266 -0.022216797 0.033447266
000060 9d 3c 2e bb e6 3c a2 3a 63 3c 24 bc 56 3c f8 3b
       0.019165039 -0.0026550293 0.028076172 0.0012359619 0.0138549805 -0.010009766 0.013061523 0.0075683594
000070 cc 3c ae ba f3 39 cf b9 28 bb b1 bc b5 3b bb ba
       0.024902344 -0.0013275146 0.00046348572 -0.00039482117 -0.0025634766 -0.021606445 0.0055236816 -0.0014266968
000080 9e bb 58 3c c0 3c 91 bb 7d 3a 25 3b 55 3b 44 3b
       -0.0048217773 0.013183594 0.0234375 -0.004425049 0.0009651184 0.0025177002 0.003250122 0.0029907227
000090 cd 3c cb bc 44 38 ab 3b 15 3b 90 bc 03 3b 5e 3c
       0.025024414 -0.024780273 4.673004e-05 0.005218506 0.0022735596 -0.017578125 0.0019989014 0.013549805
0000a0 fe b8 05 3c 14 3a 7f 3d 05 bc 91 3c b8 3a b5 3c
       -0.00012111664 0.008117676 0.0005645752 0.06225586 -0.008117676 0.017700195 0.0014038086 0.022094727
0000b0 7e 3d 3a bc 49 bb c4 ba 18 bd 80 bd 7c bc d4 3c
       0.06201172 -0.011352539 -0.0030670166 -0.0014953613 -0.037109375 -0.0625 -0.015380859 0.025878906
0000c0 e9 bb ad bc 7f 3c f7 bb fa bb 14 3c 08 3c bf 3c
       -0.0071105957 -0.021118164 0.015563965 -0.007537842 -0.0076293945 0.009033203 0.008300781 0.02331543
0000d0 db bc d0 bc 5b bd 24 3d 8c bc bb bc 10 bd 93 bc
       -0.026733398 -0.025390625 -0.053466797 0.040039062 -0.017089844 -0.022827148 -0.03515625 -0.017944336
0000e0 9e bc bd 3b 7e 3c fb 3c 29 ba d4 bc 27 bb 6d bc
       -0.01928711 0.0057678223 0.01550293 0.030639648 -0.00064468384 -0.025878906 -0.0025482178 -0.014465332
0000f0 15 3d e4 3a f0 bc 79 bb d6 3c 2d 3c 82 3b 15 3d
       0.036376953 0.001739502 -0.029296875 -0.0037994385 0.026123047 0.010559082 0.003967285 0.036376953
000100 ee 3c 45 3c 9b bb 5b 3c 3c 3c 82 3c 3d bd bc 3c
       0.029052734 0.012023926 -0.0047302246 0.013366699 0.011474609 0.01586914 -0.046142578 0.022949219
000110 11 3c 93 3c d6 3b 89 3c 42 bc b2 3b b3 bc 61 3b
       0.008850098 0.017944336 0.0065307617 0.016723633 -0.01184082 0.005432129 -0.021850586 0.0034332275
000120 97 3c 78 bb f9 bc e8 3b b3 3c 23 3c 27 bb ac 3b
       0.018432617 -0.0037841797 -0.030395508 0.007080078 0.021850586 0.0099487305 -0.0025482178 0.0052490234
000130 1c bd 48 3c 81 bc 1e 3d e4 3b be 3c 33 3b 83 bb
       -0.038085938 0.012207031 -0.01574707 0.03857422 0.006958008 0.02319336 0.0027313232 -0.0039978027
000140 51 3b 32 bc 40 bc 92 bb 97 3b ab 3c ed bb 3f 3c
       0.003189087 -0.010864258 -0.01171875 -0.0044555664 0.0046081543 0.020874023 -0.007232666 0.011657715
000150 48 3c 29 3b 78 ba ac bc 75 bc e1 ba 7d 3c 7d ba
       0.012207031 0.0025787354 -0.0009460449 -0.020996094 -0.014953613 -0.0017166138 0.0154418945 -0.0009651184
000160 a7 3c a2 ba f3 bc 85 ba 33 bc e4 3b 20 3d 5e 3a
       0.020385742 -0.0012359619 -0.029663086 -0.0010147095 -0.010925293 0.006958008 0.0390625 0.0008468628
000170 0a bc 84 3a e8 3c 41 3c 74 bb a6 bc fc 3b ac ba
       -0.008422852 0.0010070801 0.028320312 0.011779785 -0.0037231445 -0.020263672 0.0076904297 -0.0013122559
000180 3d 3d 6b 3c d1 39 0c 3d 4f bd 67 bb 3b bb 77 3d
       0.046142578 0.014343262 0.00039863586 0.034179688 -0.05053711 -0.0035247803 -0.0028533936 0.060302734
000190 fc 3b 84 3c 14 bb d7 3b 54 bc 79 3c 01 3b cb bb
       0.0076904297 0.016113281 -0.0022583008 0.0065612793 -0.012939453 0.015197754 0.0019683838 -0.0061950684
0001a0 61 3a 57 3b c7 b9 3a bd 29 bc 62 3b ee 3a 32 39
       0.0008583069 0.0032806396 -0.00037956238 -0.045410156 -0.010314941 0.0034484863 0.0018157959 0.00016975403
0001b0 57 bc 68 3c 95 3c d4 bc c5 3a 5f bd 3b 3c e0 ba
       -0.013122559 0.014160156 0.018188477 -0.025878906 0.0015029907 -0.05444336 0.011413574 -0.0017089844
0001c0 a4 bc 16 3b bc bc 97 bb 08 bd 5a 3c d7 bb 9d 39
       -0.020019531 0.0022888184 -0.022949219 -0.0046081543 -0.033203125 0.013305664 -0.0065612793 0.00029945374
0001d0 be bc a5 3c 00 3a 8b ba c5 ba 3c 3c 16 3c dd 3a
       -0.02319336 0.020141602 0.00048828125 -0.0010604858 -0.0015029907 0.011474609 0.009155273 0.0016860962
0001e0 dd bb b2 3c 36 bc ae 3c d8 ba 5d 3c 02 3c c5 3b
       -0.0067443848 0.021728516 -0.011108398 0.021240234 -0.0016479492 0.0134887695 0.00793457 0.006011963
0001f0 76 3c 3b bb 02 3b 30 bc dd 3b 6b 3b 72 b9 d5 bb
       0.015014648 -0.0028533936 0.0019836426 -0.0107421875 0.0067443848 0.0035858154 -0.00023078918 -0.006500244
