data/probes_binary/layer_8/probe_reframing.pth (torch, 6984 bytes, 1 tensors)

linear.weight bf16 [1, 2560]
00000000: bebc f3bb 163c 24bb 523c 20bd 61bc b43b
00000010: 5f3a 813b 07bc 9ebb 943b 06bc 46bc 813b
00000020: c43b 0e3a 11bd 16bb e0bb 013d 4fba ef3b
00000030: 82bc 38bd 79bc 623c 903c 1abb ecbb adbb
00000040: 6e3b 72bd 31bb 8bbb 783c 3f3a a0bb 303b
00000050: 2439 d4ba b9bc d53c ff3c ddbb 1b3c 4abc
00000060: 393c b7ba 913b 65bc 063c 8a3b 90bb 0e3a
00000070: 8e3c 5c3b 68ba 9bbc 27bb 6fbb 4d3b 543c
00000080: 9dbb bc3c ec3c 833c 38b9 52bb 863c a93c
00000090: a6bb d6bc 31ba a2ba 58bb b93c 83bb 80bb
000000a0: 16bb 68bb 91ba 193d 1d3d 93bc c2bb d0bb
000000b0: 293d 0dbd f13a bfba 963c 09bd a13b efbb
000000c0: 1d3b f139 b23a 5d3b 22bc 2f3c 383c 08bc
000000d0: 9cbc 1cbd 00bd 2e3c 2ebc b63c 80bd ff3a
000000e0: b93c f93b fd3c 5ebc 15bb 0bbd 99bc febc
000000f0: cd3c 9b3b 9eba e13c 0ebd 8b3b a53b 6bbb
00000100: aebc 90bb 723b 0d3b a73c 01ba 21bc 1b3c
00000110: ecba 7d3c 1c39 923b eb3c fb3c 8f3c 903a
00000120: f7bb 12bb 2b3c 31bb 1fbb 123b cebc 5fbc
00000130: bbbc 10bc c33c 973c c3bb da3b d239 a6ba
00000140: 25bb 43bc 983b b939 da3b 493a 09bb fe3b
00000150: f2bc 873b 2abd 95bc 1fbb 0e3c 98ba 9aba
00000160: 74bc 25bc cfbb 8d3c c53b 43bb 9d3c 3fbb
00000170: 713c b53b 10bc 983c 1a3b 133d ad3b 943a
00000180: e83c 663c 17bb edbb ff3c 063b 823a 11bc
00000190: 2cbb ea3c 903c b33b ef3c 12bc 073d 753c
000001a0: 14bb deba bdbb a93c 8bbb afba ef3b 5c36
000001b0: 473b 56bc fa3c efbc 20bc 97bc 803c 8c38
000001c0: 2bbb 9bbb 653a b23b 9ebc 61bc 66bd 9b3b
000001d0: acbb 1d3c ceb8 8f3a d839 9bbb 5abb 97bb
000001e0: abbc 0d3d ea3a 15bd 93bc 633c 38bc 63bb
000001f0: 21bb 90bc c63b ecbc bfbc 6c3c 99bb c3bc
-0.02319336 -0.0074157715 0.009155273 -0.0025024414 0.012817383 -0.0390625 -0.01373291 0.005493164
0.0008506775 0.0039367676 -0.008239746 -0.0048217773 0.0045166016 -0.008178711 -0.012084961 0.0039367676
0.0059814453 0.000541687 -0.03540039 -0.0022888184 -0.0068359375 0.03149414 -0.00078964233 0.007293701
-0.01586914 -0.044921875 -0.015197754 0.013793945 0.017578125 -0.0023498535 -0.0072021484 -0.005279541
0.0036315918 -0.05908203 -0.0027008057 -0.0042419434 0.015136719 0.0007286072 -0.0048828125 0.0026855469
0.00015640259 -0.0016174316 -0.022583008 0.026000977 0.03112793 -0.0067443848 0.009460449 -0.012329102
0.011291504 -0.0013961792 0.004425049 -0.013977051 0.008178711 0.004211426 -0.0043945312 0.000541687
0.017333984 0.0033569336 -0.00088500977 -0.018920898 -0.0025482178 -0.0036468506 0.0031280518 0.012939453
-0.0047912598 0.022949219 0.028808594 0.015991211 -0.00017547607 -0.0032043457 0.016357422 0.020629883
-0.005065918 -0.026123047 -0.0006752014 -0.0012359619 -0.0032958984 0.022583008 -0.0039978027 -0.00390625
-0.0022888184 -0.003540039 -0.0011062622 0.037353516 0.038330078 -0.017944336 -0.00592041 -0.0063476562
0.041259766 -0.034423828 0.0018386841 -0.0014572144 0.018310547 -0.033447266 0.00491333 -0.007293701
0.0023956299 0.00045967102 0.0013580322 0.0033721924 -0.009887695 0.010681152 0.011230469 -0.008300781
-0.019042969 -0.038085938 -0.03125 0.010620117 -0.010620117 0.022216797 -0.0625 0.0019454956
0.022583008 0.007598877 0.030883789 -0.013549805 -0.0022735596 -0.033935547 -0.018676758 -0.03100586
0.025024414 0.0047302246 -0.0012054443 0.02746582 -0.03466797 0.0042419434 0.0050354004 -0.0035858154
-0.021240234 -0.0043945312 0.003692627 0.0021514893 0.020385742 -0.00049209595 -0.00982666 0.009460449
-0.0018005371 0.0154418945 0.0001487732 0.0044555664 0.028686523 0.030639648 0.017456055 0.0010986328
-0.007537842 -0.0022277832 0.010437012 -0.0027008057 -0.0024261475 0.0022277832 -0.025146484 -0.01361084
-0.022827148 -0.0087890625 0.023803711 0.018432617 -0.0059509277 0.006652832 0.0004005432 -0.0012664795
-0.0025177002 -0.0119018555 0.004638672 0.0003528595 0.006652832 0.00076675415 -0.002090454 0.007751465
-0.029541016 0.004119873 -0.041503906 -0.018188477 -0.0024261475 0.008666992 -0.001159668 -0.0011749268
-0.014892578 -0.010070801 -0.0063171387 0.017211914 0.006011963 -0.0029754639 0.019165039 -0.0029144287
0.014709473 0.0055236816 -0.0087890625 0.018554688 0.0023498535 0.035888672 0.005279541 0.0011291504
0.028320312 0.014038086 -0.0023040771 -0.007232666 0.03112793 0.0020446777 0.0009918213 -0.008850098
-0.0026245117 0.028564453 0.017578125 0.0054626465 0.029174805 -0.008911133 0.032958984 0.014953613
-0.0022583008 -0.0016937256 -0.0057678223 0.020629883 -0.0042419434 -0.001335144 0.007293701 3.2782555e-06
0.003036499 -0.013061523 0.030517578 -0.029174805 -0.009765625 -0.018432617 0.015625 6.67572e-05
-0.002609253 -0.0047302246 0.0008735657 0.005432129 -0.01928711 -0.01373291 -0.056152344 0.0047302246
-0.0052490234 0.0095825195 -9.8228455e-05 0.0010910034 0.0004119873 -0.0047302246 -0.003326416 -0.0046081543
-0.020874023 0.034423828 0.0017852783 -0.036376953 -0.017944336 0.0138549805 -0.011230469 -0.0034637451
-0.002456665 -0.017578125 0.0060424805 -0.028808594 -0.02331543 0.014404297 -0.0046691895 -0.023803711
