data/probes_binary/layer_8/probe_abstracting.pth (torch, 6996 bytes, 1 tensors)

linear.weight bf16 [1, 2560]
0.0018157959 -0.006072998 -0.036621094 0.0034484863 0.02722168 0.052978516 0.008605957 0.0015869141
-0.033203125 -0.003250122 -0.0115356445 -0.014587402 -0.011352539 0.036376953 0.025878906 -0.02722168
0.017944336 0.015014648 0.045654297 -0.03881836 -0.030395508 0.040527344 -0.0030212402 -0.007659912
-0.0027770996 0.00028038025 -0.003326416 0.006072998 -0.020874023 0.0006942749 0.0051574707 -0.0047912598
0.007232666 -0.009277344 -0.0095825195 -0.013305664 0.013000488 -0.0014801025 -0.0099487305 0.0034484863
0.0005531311 0.0050964355 -0.014282227 0.0067749023 -0.017578125 -0.0063171387 0.0039367676 0.0079956055
0.0048828125 0.01574707 0.007171631 -0.021118164 0.015197754 -0.00793457 0.0028686523 -0.03173828
-0.025512695 0.0036773682 -0.00032615662 -0.0065612793 0.0037994385 -0.010131836 -0.0035705566 0.03540039
-0.00020980835 -0.010986328 0.028076172 -0.03857422 0.0015182495 0.008911133 -0.004180908 0.009460449
-0.016357422 -0.037841797 -0.0008163452 0.002319336 0.002746582 -0.0038452148 -0.009643555 -0.018432617
0.0008087158 -0.0008659363 -0.0030975342 -0.022216797 0.009643555 0.022338867 -0.03173828 -0.014709473
0.0015335083 -0.0070495605 -0.018798828 0.0009918213 0.032470703 0.061523438 -0.005432129 0.0005226135
-0.005706787 0.0008659363 -0.009094238 0.007507324 0.014404297 -0.0069885254 0.020874023 -0.001335144
-0.0017929077 0.03540039 0.014160156 0.0050964355 0.005645752 0.0068359375 0.037353516 0.005004883
0.010925293 0.0074157715 -0.018432617 0.0018463135 0.006011963 -0.03881836 -0.0032653809 -0.014465332
0.03930664 0.0008430481 -0.0026855469 0.0039978027 -0.017456055 0.020263672 0.009033203 0.006286621
-0.038085938 -0.026367188 0.0073242188 0.027954102 -0.0021209717 0.011352539 0.041503906 0.024169922
-0.0016326904 0.016601562 0.011779785 0.0010604858 0.030761719 0.02746582 0.032470703 0.008300781
0.030517578 0.0013504028 -0.06225586 -0.009033203 -0.06225586 -0.005065918 -0.03881836 -0.0625
0.034423828 0.026611328 0.04296875 -0.015991211 -0.0061950684 -0.004425049 -0.0010147095 -0.012573242
-0.011779785 0.012634277 0.018676758 -0.013916016 0.010925293 0.00491333 0.0031433105 0.021240234
-0.009155273 -0.0029296875 -0.02355957 0.0045776367 0.008239746 -0.0002784729 -0.029663086 -0.018676758
-0.012939453 -0.005340576 0.007019043 0.029663086 0.040039062 0.061767578 0.035888672 0.0067749023
-0.013183594 -0.012756348 0.017333984 -0.0073242188 0.024414062 0.06225586 0.008300781 -0.019897461
0.032714844 0.0063476562 0.00020885468 -0.011230469 -0.0048828125 -0.010192871 -0.003540039 -0.03564453
-0.0020751953 -0.016235352 0.0126953125 0.014770508 -0.02319336 0.022338867 0.01159668 0.006866455
0.007507324 -0.0004234314 -0.0051574707 0.0095825195 -0.01184082 -0.0067749023 0.007659912 0.0024261475
0.021606445 0.004333496 -0.037353516 0.021606445 0.04736328 0.011413574 -0.00045204163 0.0032958984
-0.0007133484 0.0013809204 -0.008544922 0.007293701 0.014160156 0.030639648 0.0625 3.2186508e-05
-0.009460449 -0.02722168 0.00026893616 -0.0032958984 -0.0040283203 -0.0007286072 0.0005531311 -0.020874023
-0.02722168 -0.037353516 0.0078125 -0.032470703 -0.0029144287 0.021484375 -0.00063323975 0.025024414
-0.014343262 -0.0019226074 0.006713867 0.05053711 0.022583008 -0.016845703 0.0029296875 -0.002456665
00000000: ee3a c7bb 16bd 623b df3c 593d 0d3c d03a
00000010: 08bd 55bb 3dbc 6fbc 3abc 153d d43c dfbc
00000020: 933c 763c 3b3d 1fbd f9bc 263d 46bb fbbb
00000030: 36bb 9339 5abb c73b abbc 363a a93b 9dbb
00000040: ed3b 18bc 1dbc 5abc 553c c2ba 23bc 623b
00000050: 113a a73b 6abc de3b 90bc cfbb 813b 033c
00000060: a03b 813c eb3b adbc 793c 02bc 3c3b 02bd
00000070: d1bc 713b abb9 d7bb 793b 26bc 6abb 113d
00000080: 5cb9 34bc e63c 1ebd c73a 123c 89bb 1b3c
00000090: 86bc 1bbd 56ba 183b 343b 7cbb 1ebc 97bc
000000a0: 543a 63ba 4bbb b6bc 1e3c b73c 02bd 71bc
000000b0: c93a e7bb 9abc 823a 053d 7c3d b2bb 093a
000000c0: bbbb 633a 15bc f63b 6c3c e5bb ab3c afba
000000d0: ebba 113d 683c a73b b93b e03b 193d a43b
000000e0: 333c f33b 97bc f23a c53b 1fbd 56bb 6dbc
000000f0: 213d 5d3a 30bb 833b 8fbc a63c 143c ce3b
00000100: 1cbd d8bc f03b e53c 0bbb 3a3c 2a3d c63c
00000110: d6ba 883c 413c 8b3a fc3c e13c 053d 083c
00000120: fa3c b13a 7fbd 14bc 7fbd a6bb 1fbd 80bd
00000130: 0d3d da3c 303d 83bc cbbb 91bb 85ba 4ebc
00000140: 41bc 4f3c 993c 64bc 333c a13b 4e3b ae3c
00000150: 16bc 40bb c1bc 963b 073c 92b9 f3bc 99bc
00000160: 54bc afbb e63b f33c 243d 7d3d 133d de3b
00000170: 58bc 51bc 8e3c f0bb c83c 7f3d 083c a3bc
00000180: 063d d03b 5b39 38bc a0bb 27bc 68bb 12bd
00000190: 08bb 85bc 503c 723c bebc b73c 3e3c e13b
000001a0: f63b deb9 a9bb 1d3c 42bc debb fb3b 1f3b
000001b0: b13c 8e3b 19bd b13c 423d 3b3c edb9 583b
000001c0: 3bba b53a 0cbc ef3b 683c fb3c 803d 0738
000001d0: 1bbc dfbc 8d39 58bb 84bb 3fba 113a abbc
000001e0: dfbc 19bd 003c 05bd 3fbb b03c 26ba cd3c
000001f0: 6bbc fcba dc3b 4f3d b93c 8abc 403b 21bb
