data/probes_binary/layer_24/probe_emotion_responding.pth (torch, 7166 bytes, 1 tensors)

linear.weight bf16 [1, 2560]
000000 b0 ba ac 3b 99 3c cc bc 89 bb 48 39 8e bb 85 3c
       -0.0013427734 0.0052490234 0.018676758 -0.024902344 -0.004180908 0.00019073486 -0.004333496 0.016235352
000010 62 3c 8e bb e4 3a 43 3b 60 3b 11 3a 0e ba 12 bc
       0.013793945 -0.004333496 0.001739502 0.0029754639 0.0034179688 0.0005531311 -0.000541687 -0.008911133
000020 d7 ba 00 3b d7 ba 80 b9 06 bb 64 bb 0f bb 52 bc
       -0.0016403198 0.001953125 -0.0016403198 -0.00024414062 -0.0020446777 -0.003479004 -0.0021820068 -0.012817383
000030 85 3b ac bc 9b ba a5 bb 0c 3b 47 bd f6 bb d2 bb
       0.004058838 -0.020996094 -0.0011825562 -0.0050354004 0.0021362305 -0.048583984 -0.007507324 -0.0064086914
000040 1f bb 48 3d 80 3a 59 ba c3 bc 16 bc cc 3c ff 3c
       -0.0024261475 0.048828125 0.0009765625 -0.0008277893 -0.023803711 -0.009155273 0.024902344 0.03112793
000050 42 3c 46 3a f4 3b a8 3a 2b ba 00 3d c7 3b ab bc
       0.01184082 0.00075531006 0.007446289 0.0012817383 -0.00065231323 0.03125 0.006072998 -0.020874023
000060 c5 ba 40 bc 4a 3c eb 3b c4 ba e7 bb 21 3c f0 3b
       -0.0015029907 -0.01171875 0.012329102 0.007171631 -0.0014953613 -0.0070495605 0.00982666 0.0073242188
000070 c5 ba fe bc 89 3b e4 3a bd ba 98 bb 9f 3c 8e bb
       -0.0015029907 -0.03100586 0.004180908 0.001739502 -0.0014419556 -0.004638672 0.01940918 -0.004333496
000080 f5 bb 03 bb 8e 3b bd 3b 01 3c 12 3d d1 3b ce 3c
       -0.0074768066 -0.0019989014 0.004333496 0.0057678223 0.007873535 0.03564453 0.006378174 0.025146484
000090 5c bb 40 bd f3 3a 0e bb 13 3c 55 3d fe bb 00 bd
       -0.0033569336 -0.046875 0.0018539429 -0.002166748 0.008972168 0.052001953 -0.007751465 -0.03125
0000a0 c1 bc 81 ba cd bb 5d bb 29 3c 9b 3a 70 bb 84 bb
       -0.02355957 -0.0009841919 -0.0062561035 -0.0033721924 0.010314941 0.0011825562 -0.0036621094 -0.0040283203
0000b0 f7 bb b4 3a ea 3b 58 bb e0 bb 49 bc 81 3b f6 3a
       -0.007537842 0.001373291 0.0071411133 -0.0032958984 -0.0068359375 -0.012268066 0.0039367676 0.001876831
0000c0 f4 39 f6 3b 61 3a 57 bc ca 3b ff 3b c6 bb 50 3c
       0.00046539307 0.007507324 0.0008583069 -0.013122559 0.006164551 0.0077819824 -0.0060424805 0.0126953125
0000d0 a7 3c ff 3b dc b9 03 bc 9a 3b 6d 3a db 3b 16 bb
       0.020385742 0.0077819824 -0.0004196167 -0.0079956055 0.004699707 0.00090408325 0.0066833496 -0.0022888184
0000e0 a0 bb f2 3b 5e 3b 62 bb ad 3c 6c ba 89 bb b5 3b
       -0.0048828125 0.007385254 0.0033874512 -0.0034484863 0.021118164 -0.00090026855 -0.004180908 0.0055236816
0000f0 fd bb 4a ba 1a 3b cd 3b 61 3c 00 3d 13 3a 00 3c
       -0.0077209473 -0.00077056885 0.0023498535 0.0062561035 0.01373291 0.03125 0.0005607605 0.0078125
000100 e6 3a 6c 3b 5b ba 12 3c c0 3c 1f bb 32 3a 34 b8
       0.0017547607 0.0036010742 -0.0008354187 0.008911133 0.0234375 -0.0024261475 0.0006790161 -4.2915344e-05
000110 aa bc 6f bc 96 3a eb bb 32 3b da 3b ec 3c 04 bc
       -0.020751953 -0.014587402 0.0011444092 -0.007171631 0.0027160645 0.006652832 0.028808594 -0.008056641
000120 00 bd 8f ba 2c b9 52 bb 0b 3a fa bc cb bb da bb
       -0.03125 -0.0010910034 -0.00016403198 -0.0032043457 0.0005302429 -0.030517578 -0.0061950684 -0.006652832
000130 ee bb 8b 39 b3 bb 55 ba 58 39 e0 bc 77 bc 64 bb
       -0.0072631836 0.00026512146 -0.0054626465 -0.0008125305 0.00020599365 -0.02734375 -0.015075684 -0.003479004
000140 da bb 20 3c 3c 3d ab bb 1e bc 99 bb 2b 3c ca ba
       -0.006652832 0.009765625 0.045898438 -0.005218506 -0.009643555 -0.0046691895 0.010437012 -0.0015411377
000150 4a bb 61 3b a9 b9 d0 3b ac bb 70 3a 05 3c 80 3b
       -0.0030822754 0.0034332275 -0.00032234192 0.0063476562 -0.0052490234 0.00091552734 0.008117676 0.00390625
000160 1c bc 09 ba a6 bb 14 3a b2 3b 0f 3b da bc 03 bd
       -0.009521484 -0.0005226135 -0.005065918 0.0005645752 0.005432129 0.0021820068 -0.026611328 -0.031982422
000170 bd 3b 51 ba a1 3a 85 3b e8 3b 53 3c 48 bc 82 3b
       0.0057678223 -0.0007972717 0.0012283325 0.004058838 0.007080078 0.012878418 -0.012207031 0.003967285
000180 16 bb 36 3b 11 ba 94 bb 9a bb e4 bb 12 bd e1 3a
       -0.0022888184 0.0027770996 -0.0005531311 -0.0045166016 -0.004699707 -0.006958008 -0.03564453 0.0017166138
000190 22 3b 99 3b 31 ba 21 bc e4 3b a1 bb e9 3a 93 3b
       0.0024719238 0.0046691895 -0.0006752014 -0.00982666 0.006958008 -0.00491333 0.0017776489 0.004486084
0001a0 45 3c e8 3c ef 3a d6 3b b3 3b 52 ba 0e bd 9d 3a
       0.012023926 0.028320312 0.0018234253 0.0065307617 0.0054626465 -0.0008010864 -0.03466797 0.0011978149
0001b0 8c 3b 7b 3c 80 bc 76 3a 7b bc 01 bc 76 bc b0 ba
       0.004272461 0.015319824 -0.015625 0.0009384155 -0.015319824 -0.007873535 -0.015014648 -0.0013427734
0001c0 aa 3b 83 bb 56 3b 6d bb 2a 3b dd 3b 55 bc 53 bb
       0.0051879883 -0.0039978027 0.0032653809 -0.003616333 0.0025939941 0.0067443848 -0.013000488 -0.0032196045
0001d0 a1 bb d0 3b 63 ba 01 bd 00 3d 30 bc 0a bd 2e bc
       -0.00491333 0.0063476562 -0.0008659363 -0.03149414 0.03125 -0.0107421875 -0.033691406 -0.010620117
0001e0 3c 3a 04 bb 31 ba 71 ba a0 bb 3a 3b 34 3c 74 3b
       0.0007171631 -0.0020141602 -0.0006752014 -0.00091934204 -0.0048828125 0.0028381348 0.010986328 0.0037231445
0001f0 3c bb 5a 3c 78 3a 1b ba f1 ba e3 3b a5 bc 4c bb
       -0.0028686523 0.013305664 0.0009460449 -0.0005912781 -0.0018386841 0.0069274902 -0.020141602 -0.003112793
