data/probes_binary/layer_21/probe_emotion_organizing.pth (torch, 7166 bytes, 1 tensors)

linear.weight bf16 [1, 2560]
-0.004547119 -0.011108398 -0.012817383 -0.012268066 -0.031982422 0.007873535 0.010192871 -0.032470703
-0.007507324 -0.005706787 0.005340576 0.007598877 -0.0020599365 0.011962891 0.03100586 -0.003189087
-0.00077819824 -0.0078125 0.016967773 -0.00014305115 0.0053710938 0.013183594 0.011230469 -0.008056641
-0.029907227 0.03491211 -0.0014419556 -0.028930664 -0.008361816 0.040527344 -0.0031738281 -0.004699707
0.021118164 0.025512695 0.008972168 -0.00092315674 0.010070801 0.0041503906 0.03125 -0.014099121
0.0013656616 -0.007446289 0.00010967255 -0.0043029785 0.03125 0.005859375 -0.00793457 0.007080078
0.020874023 0.024658203 0.0079956055 0.012573242 -0.0032958984 0.010192871 0.015319824 -0.008178711
0.021362305 -0.033935547 0.0011291504 0.0071105957 0.03112793 -0.03125 -0.032470703 -0.0038146973
-0.03100586 -0.0031280518 0.010620117 0.0068969727 -0.0012969971 0.012512207 -0.01159668 -0.012268066
-0.040527344 -0.03149414 0.0040283203 0.007293701 0.0076293945 -0.008117676 -0.026489258 -0.027954102
0.004486084 0.0048828125 0.0021820068 -0.027709961 0.0067749023 -0.061035156 0.007171631 -0.025756836
0.0095825195 -0.027709961 -0.025512695 0.0011749268 -0.00038337708 0.015625 0.0040283203 0.036376953
0.0020751953 -0.0013885498 -0.012451172 0.029296875 0.0071105957 -0.004852295 0.002380371 -0.010681152
-0.00579834 0.0126953125 -0.032226562 0.0030517578 -0.017700195 0.007080078 0.013183594 -0.013793945
-0.018676758 -0.0071411133 -0.008850098 0.008666992 0.060302734 -0.011108398 -0.01965332 0.005554199
0.0067443848 -0.0072631836 -0.013305664 0.013366699 0.01550293 -0.0073547363 0.0017776489 -0.0076293945
0.0054016113 0.0012054443 -0.017211914 -0.03125 -0.025634766 -0.0057373047 -0.012573242 0.017822266
-0.017456055 -0.006134033 0.00793457 -0.012512207 0.007751465 0.009460449 -0.046875 0.0067443848
0.012817383 -0.00024604797 0.0019989014 -0.005126953 -0.026367188 -0.024536133 -0.013916016 -0.008850098
-0.02709961 0.011169434 0.020874023 0.010314941 -0.008850098 0.00031089783 0.0046081543 0.026123047
-0.012023926 0.003479004 -0.016479492 0.006866455 -0.00579834 0.011352539 0.0021972656 0.03491211
-0.029418945 -0.0002374649 0.03125 0.026733398 0.015563965 -0.0154418945 -0.0028533936 -0.0019836426
0.006072998 -0.015625 0.0026245117 0.008972168 0.014526367 0.012878418 -0.018920898 0.0075683594
0.022094727 0.010498047 -0.03125 0.024658203 0.008361816 0.010253906 0.0073242188 -0.001625061
-0.0045776367 -0.0055236816 -0.018310547 0.00390625 0.0059509277 -0.011291504 0.012451172 -0.014587402
0.005279541 0.0059814453 0.005004883 0.014099121 -0.011169434 -0.021118164 -0.01361084 0.009277344
0.0046691895 -0.031982422 0.009399414 -0.007080078 -0.060058594 -0.026000977 0.006225586 -0.006652832
0.0019378662 -0.0068969727 -0.0015182495 0.0054016113 0.037841797 0.029907227 0.0034637451 -0.0017089844
0.022460938 0.021850586 0.036865234 0.012207031 0.004547119 -0.011352539 -0.0016860962 -0.005584717
-0.0065612793 -0.00592041 0.0038909912 0.0072021484 0.029174805 0.0013275146 -0.03466797 0.0035705566
-0.01940918 -0.00049972534 -0.0079956055 -0.004333496 0.0030517578 0.010864258 0.023803711 -0.0010147095
-0.00680542 -0.0056762695 0.03125 -0.033691406 0.0042419434 0.0095825195 0.00017261505 0.02734375
00000000: 95bb 36bc 52bc 49bc 03bd 013c 273c 05bd
00000010: f6bb bbbb af3b f93b 07bb 443c fe3c 51bb
00000020: 4cba 00bc 8b3c 16b9 b03b 583c 383c 04bc
00000030: f5bc 0f3d bdba edbc 09bc 263d 50bb 9abb
00000040: ad3c d13c 133c 72ba 253c 883b 003d 67bc
00000050: b33a f4bb e638 8dbb 003d c03b 02bc e83b
00000060: ab3c ca3c 033c 4e3c 58bb 273c 7b3c 06bc
00000070: af3c 0bbd 943a e93b ff3c 00bd 05bd 7abb
00000080: febc 4dbb 2e3c e23b aaba 4d3c 3ebc 49bc
00000090: 26bd 01bd 843b ef3b fa3b 05bc d9bc e5bc
000000a0: 933b a03b 0f3b e3bc de3b 7abd eb3b d3bc
000000b0: 1d3c e3bc d1bc 9a3a c9b9 803c 843b 153d
000000c0: 083b b6ba 4cbc f03c e93b 9fbb 1c3b 2fbc
000000d0: bebb 503c 04bd 483b 91bc e83b 583c 62bc
000000e0: 99bc eabb 11bc 0e3c 773d 36bc a1bc b63b
000000f0: dd3b eebb 5abc 5b3c 7e3c f1bb e93a fabb
00000100: b13b 9e3a 8dbc 00bd d2bc bcbb 4ebc 923c
00000110: 8fbc c9bb 023c 4dbc fe3b 1b3c 40bd dd3b
00000120: 523c 81b9 033b a8bb d8bc c9bc 64bc 11bc
00000130: debc 373c ab3c 293c 11bc a339 973b d63c
00000140: 45bc 643b 87bc e13b bebb 3a3c 103b 0f3d
00000150: f1bc 79b9 003d db3c 7f3c 7dbc 3bbb 02bb
00000160: c73b 80bc 2c3b 133c 6e3c 533c 9bbc f83b
00000170: b53c 2c3c 00bd ca3c 093c 283c f03b d5ba
00000180: 96bb b5bb 96bc 803b c33b 39bc 4c3c 6fbc
00000190: ad3b c43b a43b 673c 37bc adbc 5fbc 183c
000001a0: 993b 03bd 1a3c e8bb 76bd d5bc cc3b dabb
000001b0: fe3a e2bb c7ba b13b 1b3d f53c 633b e0ba
000001c0: b83c b33c 173d 483c 953b 3abc ddba b7bb
000001d0: d7bb c2bb 7f3b ec3b ef3c ae3a 0ebd 6a3b
000001e0: 9fbc 03ba 03bc 8ebb 483b 323c c33c 85ba
000001f0: dfbb babb 003d 0abd 8b3b 1d3c 3539 e03c
