data/probes_binary/layer_4/probe_questioning.pth (torch, 6996 bytes, 1 tensors)

linear.weight bf16 [1, 2560]
00000000: d3bb 21bc 3ebb e23b 1b3c 5fbc e53c 63bb
00000010: d8bc 91bc c63c 17bb 013d 23bd 37bc 85bb
00000020: c5b8 053d 0abc 12bb bdbb aa3c f4bc 8f3c
00000030: 413d 21bb b3bc 0d3a 303c aaba 82bd 803d
00000040: 4d3c b7bc 1ebd fcbc 55bc d33b 2c3d 9d3c
00000050: c8bb d23b 04bd 873c 64bd 9f3c ccbc e03c
00000060: 803c f5ba b2bb d5bc 883b bcbc 93bc bb3b
00000070: 30b8 a4bb 8dbb 08ba edbb efbc 9cbb e3bb
00000080: 5b3c debb b7bc 003d 17bb 3f3c e8bb ef3a
00000090: b53b b1bb 9ebc 3abc 89ba 3aba 653c deba
000000a0: 053b 6fbd 16bd 003d 53bd e73c 0cbc 24bd
000000b0: 6f3c 813c f4bc b5bb f53c d33b 02bd 01bd
000000c0: dd3c c5bc 2cbd 47bd e53b f7bb c23b 80bc
000000d0: f6bc 82bd 89bd 173c ad3c 37bc efbc 04bb
000000e0: 693b 473b 803d 303d c03c 28bd 703d 593a
000000f0: eebc c1b9 3fbc 84bc b13b ac3c 563c 0b3d
00000100: 7fbc 6bbc 5e3c 48bd 80bd ad3a 2dbc ffbc
00000110: ff3c febc 30bd babb 17bd 3a3d f7bc 103d
00000120: 2dbc 9e38 fdbb 95bc 45bd 2e3d 393c 023d
00000130: d4bb 70bc 553b 2c3b 5e3c 26bd b1b8 fd3c
00000140: 25bc db3c 8fba e63c 80bd 833d cf3b 813d
00000150: bc3c eabc 123c 5e3d 80bc e93c 22bd 06bd
00000160: 46bb fc3c 193b 1b3c ffbc 573c d93b caba
00000170: eabc 023d 353d 043d b43c 15bd abbd 803d
00000180: 4ebc 33bd b43c b7bc b7bb 9d3c 5aba d9bb
00000190: 0c3d 6fbb 6bbd 3e3c 0dbd 183d f1bc 0cbb
000001a0: dd3c 3cbd f1bc dd3c 80bc 9638 f93a 0f3a
000001b0: bdbb 813c d33c 10bc 9ebd 803c 0ebd 5f3c
000001c0: 78bc bebb c9bb d53a 1b3d 883a 2fbd fb3c
000001d0: d03b 4a3d 1cbc 233b a73a ea3c c53b 803d
000001e0: 80bd c73b 183d 853d d23c 7dbd 673c 2b3b
000001f0: 973c 0f3d c9ba 0bbd 7e3d e3bb b1b7 203d
-0.006439209 -0.00982666 -0.00289917 0.0068969727 0.009460449 -0.01361084 0.027954102 -0.0034637451
-0.026367188 -0.017700195 0.024169922 -0.0023040771 0.03149414 -0.039794922 -0.011169434 -0.004058838
-9.393692e-05 0.032470703 -0.008422852 -0.0022277832 -0.0057678223 0.020751953 -0.029785156 0.017456055
0.04711914 -0.002456665 -0.021850586 0.0005378723 0.0107421875 -0.0012969971 -0.06347656 0.0625
0.012512207 -0.022338867 -0.03857422 -0.030761719 -0.013000488 0.006439209 0.041992188 0.019165039
-0.0061035156 0.0064086914 -0.032226562 0.016479492 -0.055664062 0.01940918 -0.024902344 0.02734375
0.015625 -0.0018692017 -0.005432129 -0.026000977 0.0041503906 -0.022949219 -0.017944336 0.005706787
-4.196167e-05 -0.005004883 -0.0043029785 -0.0005187988 -0.007232666 -0.029174805 -0.004760742 -0.0069274902
0.013366699 -0.0067749023 -0.022338867 0.03125 -0.0023040771 0.011657715 -0.007080078 0.0018234253
0.0055236816 -0.0054016113 -0.01928711 -0.011352539 -0.001045227 -0.0007095337 0.013977051 -0.0016937256
0.002029419 -0.05834961 -0.036621094 0.03125 -0.051513672 0.028198242 -0.008544922 -0.040039062
0.014587402 0.01574707 -0.029785156 -0.0055236816 0.029907227 0.006439209 -0.03173828 -0.03149414
0.026977539 -0.024047852 -0.041992188 -0.048583984 0.0069885254 -0.007537842 0.00592041 -0.015625
-0.030029297 -0.06347656 -0.06689453 0.009216309 0.021118164 -0.011169434 -0.029174805 -0.0020141602
0.0035552979 0.003036499 0.0625 0.04296875 0.0234375 -0.041015625 0.05859375 0.0008277893
-0.029052734 -0.0003681183 -0.011657715 -0.016113281 0.0054016113 0.020996094 0.013061523 0.033935547
-0.015563965 -0.014343262 0.013549805 -0.048828125 -0.0625 0.0013198853 -0.010559082 -0.03112793
0.03112793 -0.03100586 -0.04296875 -0.0056762695 -0.036865234 0.045410156 -0.030151367 0.03515625
-0.010559082 7.534027e-05 -0.0077209473 -0.018188477 -0.048095703 0.04248047 0.011291504 0.03173828
-0.0064697266 -0.0146484375 0.003250122 0.0026245117 0.013549805 -0.040527344 -8.440018e-05 0.030883789
-0.010070801 0.026733398 -0.0010910034 0.028076172 -0.0625 0.063964844 0.0063171387 0.06298828
0.022949219 -0.028564453 0.008911133 0.05419922 -0.015625 0.028442383 -0.03955078 -0.032714844
-0.0030212402 0.030761719 0.0023345947 0.009460449 -0.03112793 0.013122559 0.0066223145 -0.0015411377
-0.028564453 0.03173828 0.044189453 0.032226562 0.021972656 -0.036376953 -0.083496094 0.0625
-0.012573242 -0.043701172 0.021972656 -0.022338867 -0.005584717 0.019165039 -0.000831604 -0.0066223145
0.034179688 -0.0036468506 -0.057373047 0.01159668 -0.034423828 0.037109375 -0.029418945 -0.0021362305
0.026977539 -0.045898438 -0.029418945 0.026977539 -0.015625 7.1525574e-05 0.0018997192 0.0005455017
-0.0057678223 0.01574707 0.025756836 -0.0087890625 -0.07714844 0.015625 -0.03466797 0.01361084
-0.015136719 -0.00579834 -0.006134033 0.001625061 0.037841797 0.0010375977 -0.04272461 0.030639648
0.0063476562 0.049316406 -0.009521484 0.0024871826 0.0012741089 0.028564453 0.006011963 0.0625
-0.0625 0.006072998 0.037109375 0.064941406 0.025634766 -0.061767578 0.014099121 0.002609253
0.018432617 0.03491211 -0.0015335083 -0.033935547 0.06201172 -0.0069274902 -2.1100044e-05 0.0390625
