data/probes_binary/layer_23/probe_emotion_valuing.pth (torch, 7084 bytes, 1 tensors)

linear.weight bf16 [1, 2560]
00000000: c4bb bebb bfbc 23bd 513c 5ebc d1bc 0c3b
00000010: 1fbc c1bb b13a 7e3b fdbc 0fbb 05bc 943b
00000020: 173c 9bbc 09bd 1abb 063c 0b3c 123c 2ebc
00000030: e3bc 28bc 56bc 57bb b0bc 7c3d dcbc 65bc
00000040: 903c 20bc 723c f7bc 2cbb f2bc 3c3c 51bc
00000050: 863c 06bc dcbb ccbb 8cbb dc3b 8fbc 043d
00000060: 3ebb 043a 26bc af3b e2bb cdbb afbc e1bb
00000070: c3bb c93b 08bc 9f3b deba 8fbb cdbc c93c
00000080: aabb e1bc c93b 3ebc b2bc 2e3c a5bc f83c
00000090: 3d3d 833d 93bb 3c3b 743c b13a adbc 9bbc
000000a0: 4a3c f1b8 52bb da3b 14bb d1bb e03c 043c
000000b0: 5e3c ca3c 4ebc c03b 493c ccbc 763c ec3c
000000c0: eeb9 b43b aa3b bc3c 64bc 71bc 2dbc 733b
000000d0: afbc 35ba 59ba c3bc d6bc 8abb 2c3c 20bb
000000e0: 2abc 2e3d 9f3c 4f3b 423b 983c 4dbd 6bbb
000000f0: 09bc 283c 4a3b a53c 34bc 70bb 383c a2bb
00000100: e9bc ddbb dbbb a93c 1f3b 763c 8e3b 0eba
00000110: 92b8 70bc 083b 0a3c 46bc 5a3c fd3b 3a3d
00000120: f93c 38bb 833a 20bc 06bb c5bc 90bc 913b
00000130: 7fbc 56bc 09bc 9cbc bbba d9bc 8ebc 783b
00000140: 2abd f53b 8dbc f73b 503b c1bb 6d3c 6d3c
00000150: a63b b6bb be3c 823c 873b febc abbc 7a3c
00000160: 88bb 0b3b 91bb b13b 3f3d abbc e2bb b139
00000170: dbbb 22bc aebb 5cbb 0f39 9c3b abbc f73a
00000180: 37bc 0c3c 353c 3bbc 98ba f3bb d33b 863a
00000190: 88bc 243b 16bc 1fbd b9bb 27bc d53a c13b
000001a0: 033b e0ba 40bb 22bb 913b bbbc 9abc b93b
000001b0: fe3b dfbc 94bc f3bc b639 153b ffbb 703c
000001c0: 49bc b83c 44bc aebc 75ba 91ba 9bbc 863a
000001d0: e93c f33c 153a 803c 023d 01bc ad3b 833c
000001e0: 2d3c 5ebc 34bc 0bbc c9b9 bc3c 7d3c fb3b
000001f0: c63c 93ba 72bc 6d3c f9bc bbbc 13bc 28bc
-0.0059814453 -0.00579834 -0.02331543 -0.039794922 0.012756348 -0.013549805 -0.025512695 0.0021362305
-0.00970459 -0.0058898926 0.0013504028 0.0038757324 -0.030883789 -0.0021820068 -0.008117676 0.0045166016
0.009216309 -0.018920898 -0.033447266 -0.0023498535 0.008178711 0.008483887 0.008911133 -0.010620117
-0.027709961 -0.010253906 -0.013061523 -0.0032806396 -0.021484375 0.061523438 -0.026855469 -0.013977051
0.017578125 -0.009765625 0.014770508 -0.030151367 -0.0026245117 -0.029541016 0.011474609 -0.012756348
0.016357422 -0.008178711 -0.006713867 -0.006225586 -0.004272461 0.006713867 -0.017456055 0.032226562
-0.00289917 0.00050354004 -0.010131836 0.005340576 -0.0068969727 -0.0062561035 -0.021362305 -0.006866455
-0.0059509277 0.006134033 -0.008300781 0.004852295 -0.0016937256 -0.0043640137 -0.025024414 0.024536133
-0.0051879883 -0.02746582 0.006134033 -0.01159668 -0.021728516 0.010620117 -0.020141602 0.030273438
0.046142578 0.063964844 -0.004486084 0.0028686523 0.014892578 0.0013504028 -0.021118164 -0.018920898
0.012329102 -0.000114917755 -0.0032043457 0.006652832 -0.0022583008 -0.006378174 0.02734375 0.008056641
0.013549805 0.024658203 -0.012573242 0.005859375 0.012268066 -0.024902344 0.015014648 0.028808594
-0.00045394897 0.005493164 0.0051879883 0.022949219 -0.013916016 -0.014709473 -0.010559082 0.0037078857
-0.021362305 -0.0006904602 -0.0008277893 -0.023803711 -0.026123047 -0.004211426 0.010498047 -0.0024414062
-0.010375977 0.04248047 0.01940918 0.0031585693 0.002960205 0.018554688 -0.050048828 -0.0035858154
-0.008361816 0.010253906 0.0030822754 0.020141602 -0.010986328 -0.0036621094 0.011230469 -0.0049438477
-0.028442383 -0.0067443848 -0.0066833496 0.020629883 0.0024261475 0.015014648 0.004333496 -0.000541687
-6.9618225e-05 -0.0146484375 0.0020751953 0.008422852 -0.012084961 0.013305664 0.0077209473 0.045410156
0.030395508 -0.0028076172 0.0009994507 -0.009765625 -0.0020446777 -0.024047852 -0.017578125 0.004425049
-0.015563965 -0.013061523 -0.008361816 -0.019042969 -0.0014266968 -0.026489258 -0.017333984 0.0037841797
-0.041503906 0.0074768066 -0.017211914 0.007537842 0.0031738281 -0.0058898926 0.014465332 0.014465332
0.005065918 -0.005554199 0.02319336 0.01586914 0.004119873 -0.03100586 -0.020874023 0.015258789
-0.0041503906 0.0021209717 -0.004425049 0.0054016113 0.04663086 -0.020874023 -0.0068969727 0.0003376007
-0.0066833496 -0.009887695 -0.0053100586 -0.0033569336 0.00013637543 0.004760742 -0.020874023 0.0018844604
-0.011169434 0.008544922 0.011047363 -0.011413574 -0.001159668 -0.0074157715 0.006439209 0.0010223389
-0.016601562 0.0025024414 -0.009155273 -0.03881836 -0.005645752 -0.010192871 0.001625061 0.0058898926
0.0019989014 -0.0017089844 -0.0029296875 -0.0024719238 0.004425049 -0.022827148 -0.018798828 0.005645752
0.007751465 -0.02722168 -0.018066406 -0.029663086 0.00034713745 0.0022735596 -0.0077819824 0.0146484375
-0.012268066 0.022460938 -0.011962891 -0.021240234 -0.00093460083 -0.0011062622 -0.018920898 0.0010223389
0.028442383 0.029663086 0.0005683899 0.015625 0.03173828 -0.007873535 0.005279541 0.015991211
0.010559082 -0.013549805 -0.010986328 -0.008483887 -0.00038337708 0.022949219 0.0154418945 0.007659912
0.024169922 -0.001121521 -0.014770508 0.014465332 -0.030395508 -0.022827148 -0.008972168 -0.010253906
