data/probes_binary/layer_5/probe_situation_modification.pth (torch, 7190 bytes, 1 tensors)

linear.weight bf16 [1, 2560]
000000 7b bd 46 bc 32 bb e9 bb d9 bb a3 ba 06 bd 2f 3c
       -0.061279297 -0.012084961 -0.0027160645 -0.0071105957 -0.0066223145 -0.0012435913 -0.032714844 0.010681152
000010 06 3c b8 ba 62 bc a1 ba b9 3c f8 bc e2 bc c9 bc
       0.008178711 -0.0014038086 -0.013793945 -0.0012283325 0.022583008 -0.030273438 -0.02758789 -0.024536133
000020 d6 ba be bc ab 3a 2e bd a8 3a b8 bc 25 3b 40 3c
       -0.0016326904 -0.02319336 0.0013046265 -0.04248047 0.0012817383 -0.022460938 0.0025177002 0.01171875
000030 f8 bb da 3c f5 3b 90 bb 1c 3c e5 ba 07 bd 1d bd
       -0.0075683594 0.026611328 0.0074768066 -0.0043945312 0.009521484 -0.0017471313 -0.032958984 -0.038330078
000040 2d 39 8e 3c 0d 3d f1 bc 3e 3d 98 3c e0 bc 3c 3b
       0.00016498566 0.017333984 0.034423828 -0.029418945 0.04638672 0.018554688 -0.02734375 0.0028686523
000050 0c b9 6d 3c c6 3c fa 3b 69 3b 13 3d 17 bc 32 bc
       -0.0001335144 0.014465332 0.024169922 0.0076293945 0.0035552979 0.035888672 -0.009216309 -0.010864258
000060 d4 bc d2 ba 91 bb f9 bc 36 3c c5 bc 26 bc f2 3c
       -0.025878906 -0.0016021729 -0.004425049 -0.030395508 0.011108398 -0.024047852 -0.010131836 0.029541016
000070 46 3c 01 3d 1c bb e2 bc 15 bb 09 3d e0 3a 22 3c
       0.012084961 0.03149414 -0.002380371 -0.02758789 -0.0022735596 0.033447266 0.0017089844 0.009887695
000080 0d 3b 80 3d 06 3c f0 3a be b9 1a bc 11 bd 42 3b
       0.0021514893 0.0625 0.008178711 0.0018310547 -0.00036239624 -0.009399414 -0.03540039 0.002960205
000090 b1 3c e6 b9 a6 bb 80 3c 09 3b 4b bc d8 39 56 3c
       0.021606445 -0.0004386902 -0.005065918 0.015625 0.002090454 -0.012390137 0.0004119873 0.013061523
0000a0 9c 39 96 bb 00 bd ee 3c 35 3c 80 3c 02 3c fe 3c
       0.0002975464 -0.0045776367 -0.03125 0.029052734 0.011047363 0.015625 0.00793457 0.03100586
0000b0 11 bd 8d bb 08 b8 b4 bc 06 3c 12 bb d0 3c 02 bd
       -0.03540039 -0.0043029785 -3.2424927e-05 -0.021972656 0.008178711 -0.0022277832 0.025390625 -0.03173828
0000c0 10 bd 00 bc 6c bc c6 3c 6f 3c 20 bc 8e 3c d9 bc
       -0.03515625 -0.0078125 -0.014404297 0.024169922 0.014587402 -0.009765625 0.017333984 -0.026489258
0000d0 3e bc c3 3a 0b bb 1f bd 7d bc c4 3b 21 3d 88 bc
       -0.01159668 0.0014877319 -0.0021209717 -0.03881836 -0.0154418945 0.0059814453 0.03930664 -0.016601562
0000e0 05 3d 08 bd c7 bb c9 3c 41 3d 74 3c bd 3c 04 bd
       0.032470703 -0.033203125 -0.006072998 0.024536133 0.04711914 0.014892578 0.023071289 -0.032226562
0000f0 82 3c da 3a 80 bd 83 bc 18 3c 40 bd 95 bc 03 bc
       0.01586914 0.001663208 -0.0625 -0.015991211 0.009277344 -0.046875 -0.018188477 -0.0079956055
000100 34 3c 0c bd 47 ba 17 3c 89 bc 28 bc a6 bc 5c 3c
       0.010986328 -0.034179688 -0.00075912476 0.009216309 -0.016723633 -0.010253906 -0.020263672 0.013427734
000110 2a 3c 5b 3c 9c 3c 00 bd 2c 3b 86 3c 89 3b 7d bb
       0.010375977 0.013366699 0.019042969 -0.03125 0.0026245117 0.016357422 0.004180908 -0.0038604736
000120 33 3c c5 b9 77 bd 34 bc 5f 3b ac bb 1d 3c 53 bb
       0.010925293 -0.00037574768 -0.060302734 -0.010986328 0.00340271 -0.0052490234 0.0095825195 -0.0032196045
000130 11 bc 23 3d 07 3a 04 3d 78 bc 00 bd 1d b9 44 3c
       -0.008850098 0.039794922 0.00051498413 0.032226562 -0.015136719 -0.03125 -0.00014972687 0.011962891
000140 89 bd 8b 3c 33 3b 80 bd 15 bc 30 bd 2c 3d e0 3c
       -0.06689453 0.016967773 0.0027313232 -0.0625 -0.009094238 -0.04296875 0.041992188 0.02734375
000150 a8 bb 1b bc 9c bb 80 bc d7 3c 00 bc 19 bc 91 bb
       -0.005126953 -0.009460449 -0.004760742 -0.015625 0.026245117 -0.0078125 -0.009338379 -0.004425049
000160 3e bc be bc 57 bb dc bc 46 bb f0 bc 71 3c 68 ba
       -0.01159668 -0.02319336 -0.0032806396 -0.026855469 -0.0030212402 -0.029296875 0.014709473 -0.00088500977
000170 a4 b9 38 bc ec 3c 88 3c 93 3b d2 3c 02 bb 36 3c
       -0.00031280518 -0.011230469 0.028808594 0.016601562 0.004486084 0.025634766 -0.0019836426 0.011108398
000180 8e 3c ca bc 4f bb 01 3d 73 3c e8 bb a1 bb 83 3c
       0.017333984 -0.024658203 -0.0031585693 0.03149414 0.014831543 -0.007080078 -0.00491333 0.015991211
000190 8b 3c 8a 3a 3c bb ce 3b c7 bb d5 3c 68 bc 0f bb
       0.016967773 0.0010528564 -0.0028686523 0.006286621 -0.006072998 0.026000977 -0.014160156 -0.0021820068
0001a0 af bb 9b ba e2 bb 2e bc 00 3c 58 bb e3 3a 86 3a
       -0.005340576 -0.0011825562 -0.0068969727 -0.010620117 0.0078125 -0.0032958984 0.0017318726 0.0010223389
0001b0 73 bc 0e 3d c5 3c 67 3c 9c bb 8e bc 78 bc 2b 3c
       -0.014831543 0.03466797 0.024047852 0.014099121 -0.004760742 -0.017333984 -0.015136719 0.010437012
0001c0 da 3c 97 ba 09 3c 8b b9 b8 bc fb 3c b3 3b 0e ba
       0.026611328 -0.0011520386 0.008361816 -0.00026512146 -0.022460938 0.030639648 0.0054626465 -0.000541687
0001d0 a3 39 e4 bb 1b 3d e7 ba 48 3b 00 bd 3e bc 8e bb
       0.00031089783 -0.006958008 0.037841797 -0.0017623901 0.0030517578 -0.03125 -0.01159668 -0.004333496
0001e0 14 3c d0 3b 66 3d 4c 3b 37 3c 73 bd 04 bd 01 3d
       0.009033203 0.0063476562 0.056152344 0.003112793 0.011169434 -0.059326172 -0.032226562 0.03149414
0001f0 94 3b 2d bc 5d 3b 0a bd 3a 3c a2 ba c0 ba 9f 3c
       0.0045166016 -0.010559082 0.0033721924 -0.033691406 0.011352539 -0.0012359619 -0.0014648438 0.01940918
