data/probes_binary/layer_5/probe_zooming_out.pth (torch, 6996 bytes, 1 tensors)

linear.weight bf16 [1, 2560]
0	0xba4f	-0.00078964233
1	0xbd0b	-0.033935547
2	0xbcc6	-0.024169922
3	0x3cf7	0.030151367
4	0xbbc7	-0.006072998
5	0x3b14	0.0022583008
6	0x3d99	0.07470703
7	0xbc72	-0.014770508
8	0xbba5	-0.0050354004
9	0x3c34	0.010986328
10	0x3cc8	0.024414062
11	0xbb07	-0.0020599365
12	0xbc5f	-0.01361084
13	0x3d1d	0.038330078
14	0x3c92	0.017822266
15	0x3c69	0.014221191
16	0xbcdd	-0.026977539
17	0x3cf7	0.030151367
18	0x3c63	0.0138549805
19	0xbd8a	-0.06738281
20	0xbd04	-0.032226562
21	0xbc57	-0.013122559
22	0x3d08	0.033203125
23	0xbc93	-0.017944336
24	0x3b6b	0.0035858154
25	0xbd19	-0.037353516
26	0xbc0d	-0.008605957
27	0x3ca2	0.01977539
28	0x3c80	0.015625
29	0xbb09	-0.002090454
30	0x3cc4	0.023925781
31	0x3c2a	0.010375977
32	0x3c2e	0.010620117
33	0xbcca	-0.024658203
34	0x3d81	0.06298828
35	0x3be2	0.0068969727
36	0xbd41	-0.04711914
37	0x3d01	0.03149414
38	0xbbf5	-0.0074768066
39	0xbcb9	-0.022583008
40	0x3948	0.00019073486
41	0x3c80	0.015625
42	0x3d0a	0.033691406
43	0x3bfa	0.0076293945
44	0xbd2d	-0.042236328
45	0xbcbf	-0.02331543
46	0x3d13	0.035888672
47	0xbc99	-0.018676758
48	0xbd55	-0.052001953
49	0x3ab8	0.0014038086
50	0xbc44	-0.011962891
51	0xbd2d	-0.042236328
52	0xbd00	-0.03125
53	0x3b90	0.0043945312
54	0x3c0d	0.008605957
55	0xbcf3	-0.029663086
56	0xbc99	-0.018676758
57	0xbc15	-0.009094238
58	0xbb4b	-0.0030975342
59	0x3d0f	0.03491211
60	0x3ca7	0.020385742
61	0x3c44	0.011962891
62	0xb9f0	-0.00045776367
63	0xbb98	-0.004638672
64	0xbd2d	-0.042236328
65	0x3d83	0.063964844
66	0x3bdc	0.006713867
67	0x3b01	0.0019683838
68	0xba8d	-0.0010757446
69	0xbcb6	-0.022216797
70	0x3d16	0.036621094
71	0x3ced	0.028930664
72	0x3c3d	0.0115356445
73	0xbb56	-0.0032653809
74	0xbbbe	-0.00579834
75	0x3d2f	0.04272461
76	0xbbde	-0.0067749023
77	0xbc80	-0.015625
78	0xbcf0	-0.029296875
79	0x3cbb	0.022827148
80	0xba41	-0.0007362366
81	0x3d23	0.039794922
82	0xbd0a	-0.033691406
83	0x3c92	0.017822266
84	0xbd67	-0.056396484
85	0xbcb9	-0.022583008
86	0xbbe3	-0.0069274902
87	0xbd82	-0.06347656
88	0x3d3d	0.046142578
89	0x3cf0	0.029296875
90	0x3c5b	0.013366699
91	0x3c99	0.018676758
92	0xbc87	-0.016479492
93	0x3cdd	0.026977539
94	0xbd26	-0.040527344
95	0xbc8d	-0.017211914
96	0x39e7	0.00044059753
97	0x3c99	0.018676758
98	0x3d0b	0.033935547
99	0xbd01	-0.03149414
100	0xbb8e	-0.004333496
101	0x3d03	0.031982422
102	0xbc81	-0.01574707
103	0x3c4d	0.012512207
104	0xbac9	-0.0015335083
105	0x3d00	0.03125
106	0x3924	0.00015640259
107	0x3d82	0.06347656
108	0x3c5b	0.013366699
109	0xbc68	-0.014160156
110	0x3c13	0.008972168
111	0x3b9b	0.0047302246
112	0x3d30	0.04296875
113	0xbcb9	-0.022583008
114	0x3d04	0.032226562
115	0x3d80	0.0625
116	0xbd6e	-0.05810547
117	0xbd2b	-0.041748047
118	0xbc6c	-0.014404297
119	0x3d77	0.060302734
120	0xbb35	-0.0027618408
121	0xbc09	-0.008361816
122	0xbd55	-0.052001953
123	0x3ce9	0.028442383
124	0xbc23	-0.0099487305
125	0xbd42	-0.04736328
126	0xbd23	-0.039794922
127	0xbc91	-0.017700195
128	0xbbc9	-0.006134033
129	0x3d80	0.0625
130	0x3be3	0.0069274902
131	0x3ceb	0.028686523
132	0x3d01	0.03149414
133	0xbd1b	-0.037841797
134	0xbb7e	-0.0038757324
135	0xbcd0	-0.025390625
136	0xbcea	-0.028564453
137	0xbd00	-0.03125
138	0x3c76	0.015014648
139	0xbbf0	-0.0073242188
140	0xbb65	-0.0034942627
141	0x3d0d	0.034423828
142	0xba82	-0.0009918213
143	0xbc69	-0.014221191
144	0x3d82	0.06347656
145	0xbce4	-0.027832031
146	0xbbe2	-0.0068969727
147	0xbd00	-0.03125
148	0x3c1b	0.009460449
149	0xbd0a	-0.033691406
150	0xbc41	-0.011779785
151	0x3cdc	0.026855469
152	0x3b62	0.0034484863
153	0x3d82	0.06347656
154	0x3b87	0.004119873
155	0xbd7c	-0.061523438
156	0xbd0b	-0.033935547
157	0x3d5c	0.053710938
158	0xbb16	-0.0022888184
159	0xbc6e	-0.014526367
160	0x3d77	0.060302734
161	0xbc29	-0.010314941
162	0x3c09	0.008361816
163	0x3d7f	0.06225586
164	0x3d0f	0.03491211
165	0x3c21	0.00982666
166	0xbd80	-0.0625
167	0xbc68	-0.014160156
168	0xbd91	-0.07080078
169	0xbb72	-0.003692627
170	0x3d1d	0.038330078
171	0xbcc3	-0.023803711
172	0x3d2b	0.041748047
173	0xbc63	-0.0138549805
174	0xba57	-0.0008201599
175	0xbc96	-0.018310547
176	0xbc90	-0.017578125
177	0x3b11	0.0022125244
178	0x3c87	0.016479492
179	0x3d3a	0.045410156
180	0x3b96	0.0045776367
181	0x39e5	0.00043678284
182	0x3ca3	0.019897461
183	0xbafb	-0.001914978
184	0x3bf5	0.0074768066
185	0x3d31	0.04321289
186	0xbd23	-0.039794922
187	0xbc70	-0.0146484375
188	0xbb09	-0.002090454
189	0x3d0c	0.034179688
190	0x3ca3	0.019897461
191	0x3ca1	0.01965332
192	0xbcdd	-0.026977539
193	0xbd04	-0.032226562
194	0xbc80	-0.015625
195	0xbd10	-0.03515625
196	0x3c6e	0.014526367
197	0xbd2b	-0.041748047
198	0xbb28	-0.0025634766
199	0xbcfb	-0.030639648
200	0xbc50	-0.0126953125
201	0xbc0b	-0.008483887
202	0x3cf7	0.030151367
203	0xbcd0	-0.025390625
204	0x3da2	0.07910156
205	0xbd18	-0.037109375
206	0x3c73	0.014831543
207	0xbb4b	-0.0030975342
208	0x3c47	0.012145996
209	0x3b61	0.0034332275
210	0xbc30	-0.0107421875
211	0x3d26	0.040527344
212	0xbd0c	-0.034179688
213	0xbc85	-0.016235352
214	0x3b2e	0.0026550293
215	0x3a3e	0.0007247925
216	0x3cc2	0.02368164
217	0xbd77	-0.060302734
218	0x3d31	0.04321289
219	0xbcf8	-0.030273438
220	0xba9c	-0.0011901855
221	0xbbba	-0.0056762695
222	0x3c99	0.018676758
223	0x3d0e	0.03466797
224	0xbd00	-0.03125
225	0x3cc0	0.0234375
226	0x3c89	0.016723633
227	0x3b65	0.0034942627
228	0xbd02	-0.03173828
229	0x3ca3	0.019897461
230	0xbc31	-0.010803223
231	0x3cb1	0.021606445
232	0x3b98	0.004638672
233	0x3abf	0.0014572144
234	0xbd63	-0.055419922
235	0xbb4e	-0.0031433105
236	0x3903	0.00012493134
237	0xbcfa	-0.030517578
238	0xbbbc	-0.0057373047
239	0xbc3d	-0.0115356445
240	0xbd1a	-0.037597656
241	0x3b8a	0.004211426
242	0xbcef	-0.029174805
243	0x3c1c	0.009521484
244	0x3d21	0.03930664
245	0x3ccd	0.025024414
246	0xbbfd	-0.0077209473
247	0x3be7	0.0070495605
248	0xbca6	-0.020263672
249	0x3d02	0.03173828
250	0x3b4e	0.0031433105
251	0x3d4d	0.050048828
252	0xbc2e	-0.010620117
253	0xbb3b	-0.0028533936
254	0xbb5d	-0.0033721924
255	0x3d01	0.03149414
